nohup: 忽略输入
Command Line Args: Namespace(config_file='', dist_url='tcp://127.0.0.1:50152', eval_only=False, machine_rank=0, num_gpus=2, num_machines=1, opts=[], resume=False)
[32m[12/16 10:58:43 d2.engine.defaults]: [0mModel:
GeneralizedRCNN(
  (backbone): FPN(
    (fpn_lateral2): Conv2d(256, 256, kernel_size=(1, 1), stride=(1, 1))
    (fpn_output2): Conv2d(256, 256, kernel_size=(3, 3), stride=(1, 1), padding=(1, 1))
    (fpn_lateral3): Conv2d(512, 256, kernel_size=(1, 1), stride=(1, 1))
    (fpn_output3): Conv2d(256, 256, kernel_size=(3, 3), stride=(1, 1), padding=(1, 1))
    (fpn_lateral4): Conv2d(1024, 256, kernel_size=(1, 1), stride=(1, 1))
    (fpn_output4): Conv2d(256, 256, kernel_size=(3, 3), stride=(1, 1), padding=(1, 1))
    (fpn_lateral5): Conv2d(2048, 256, kernel_size=(1, 1), stride=(1, 1))
    (fpn_output5): Conv2d(256, 256, kernel_size=(3, 3), stride=(1, 1), padding=(1, 1))
    (top_block): LastLevelMaxPool()
    (bottom_up): ResNet(
      (stem): BasicStem(
        (conv1): Conv2d(
          3, 64, kernel_size=(7, 7), stride=(2, 2), padding=(3, 3), bias=False
          (norm): FrozenBatchNorm2d(num_features=64, eps=1e-05)
        )
      )
      (res2): Sequential(
        (0): BottleneckBlock(
          (shortcut): Conv2d(
            64, 256, kernel_size=(1, 1), stride=(1, 1), bias=False
            (norm): FrozenBatchNorm2d(num_features=256, eps=1e-05)
          )
          (conv1): Conv2d(
            64, 256, kernel_size=(1, 1), stride=(1, 1), bias=False
            (norm): FrozenBatchNorm2d(num_features=256, eps=1e-05)
          )
          (conv2): Conv2d(
            256, 256, kernel_size=(3, 3), stride=(1, 1), padding=(1, 1), groups=32, bias=False
            (norm): FrozenBatchNorm2d(num_features=256, eps=1e-05)
          )
          (conv3): Conv2d(
            256, 256, kernel_size=(1, 1), stride=(1, 1), bias=False
            (norm): FrozenBatchNorm2d(num_features=256, eps=1e-05)
          )
        )
        (1): BottleneckBlock(
          (conv1): Conv2d(
            256, 256, kernel_size=(1, 1), stride=(1, 1), bias=False
            (norm): FrozenBatchNorm2d(num_features=256, eps=1e-05)
          )
          (conv2): Conv2d(
            256, 256, kernel_size=(3, 3), stride=(1, 1), padding=(1, 1), groups=32, bias=False
            (norm): FrozenBatchNorm2d(num_features=256, eps=1e-05)
          )
          (conv3): Conv2d(
            256, 256, kernel_size=(1, 1), stride=(1, 1), bias=False
            (norm): FrozenBatchNorm2d(num_features=256, eps=1e-05)
          )
        )
        (2): BottleneckBlock(
          (conv1): Conv2d(
            256, 256, kernel_size=(1, 1), stride=(1, 1), bias=False
            (norm): FrozenBatchNorm2d(num_features=256, eps=1e-05)
          )
          (conv2): Conv2d(
            256, 256, kernel_size=(3, 3), stride=(1, 1), padding=(1, 1), groups=32, bias=False
            (norm): FrozenBatchNorm2d(num_features=256, eps=1e-05)
          )
          (conv3): Conv2d(
            256, 256, kernel_size=(1, 1), stride=(1, 1), bias=False
            (norm): FrozenBatchNorm2d(num_features=256, eps=1e-05)
          )
        )
      )
      (res3): Sequential(
        (0): DeformBottleneckBlock(
          (shortcut): Conv2d(
            256, 512, kernel_size=(1, 1), stride=(2, 2), bias=False
            (norm): FrozenBatchNorm2d(num_features=512, eps=1e-05)
          )
          (conv1): Conv2d(
            256, 512, kernel_size=(1, 1), stride=(1, 1), bias=False
            (norm): FrozenBatchNorm2d(num_features=512, eps=1e-05)
          )
          (conv2_offset): Conv2d(512, 18, kernel_size=(3, 3), stride=(2, 2), padding=(1, 1))
          (conv2): DeformConv(
            in_channels=512, out_channels=512, kernel_size=(3, 3), stride=(2, 2), padding=(1, 1), dilation=(1, 1), groups=32, deformable_groups=1, bias=False
            (norm): FrozenBatchNorm2d(num_features=512, eps=1e-05)
          )
          (conv3): Conv2d(
            512, 512, kernel_size=(1, 1), stride=(1, 1), bias=False
            (norm): FrozenBatchNorm2d(num_features=512, eps=1e-05)
          )
        )
        (1): DeformBottleneckBlock(
          (conv1): Conv2d(
            512, 512, kernel_size=(1, 1), stride=(1, 1), bias=False
            (norm): FrozenBatchNorm2d(num_features=512, eps=1e-05)
          )
          (conv2_offset): Conv2d(512, 18, kernel_size=(3, 3), stride=(1, 1), padding=(1, 1))
          (conv2): DeformConv(
            in_channels=512, out_channels=512, kernel_size=(3, 3), stride=(1, 1), padding=(1, 1), dilation=(1, 1), groups=32, deformable_groups=1, bias=False
            (norm): FrozenBatchNorm2d(num_features=512, eps=1e-05)
          )
          (conv3): Conv2d(
            512, 512, kernel_size=(1, 1), stride=(1, 1), bias=False
            (norm): FrozenBatchNorm2d(num_features=512, eps=1e-05)
          )
        )
        (2): DeformBottleneckBlock(
          (conv1): Conv2d(
            512, 512, kernel_size=(1, 1), stride=(1, 1), bias=False
            (norm): FrozenBatchNorm2d(num_features=512, eps=1e-05)
          )
          (conv2_offset): Conv2d(512, 18, kernel_size=(3, 3), stride=(1, 1), padding=(1, 1))
          (conv2): DeformConv(
            in_channels=512, out_channels=512, kernel_size=(3, 3), stride=(1, 1), padding=(1, 1), dilation=(1, 1), groups=32, deformable_groups=1, bias=False
            (norm): FrozenBatchNorm2d(num_features=512, eps=1e-05)
          )
          (conv3): Conv2d(
            512, 512, kernel_size=(1, 1), stride=(1, 1), bias=False
            (norm): FrozenBatchNorm2d(num_features=512, eps=1e-05)
          )
        )
        (3): DeformBottleneckBlock(
          (conv1): Conv2d(
            512, 512, kernel_size=(1, 1), stride=(1, 1), bias=False
            (norm): FrozenBatchNorm2d(num_features=512, eps=1e-05)
          )
          (conv2_offset): Conv2d(512, 18, kernel_size=(3, 3), stride=(1, 1), padding=(1, 1))
          (conv2): DeformConv(
            in_channels=512, out_channels=512, kernel_size=(3, 3), stride=(1, 1), padding=(1, 1), dilation=(1, 1), groups=32, deformable_groups=1, bias=False
            (norm): FrozenBatchNorm2d(num_features=512, eps=1e-05)
          )
          (conv3): Conv2d(
            512, 512, kernel_size=(1, 1), stride=(1, 1), bias=False
            (norm): FrozenBatchNorm2d(num_features=512, eps=1e-05)
          )
        )
        (4): DeformBottleneckBlock(
          (conv1): Conv2d(
            512, 512, kernel_size=(1, 1), stride=(1, 1), bias=False
            (norm): FrozenBatchNorm2d(num_features=512, eps=1e-05)
          )
          (conv2_offset): Conv2d(512, 18, kernel_size=(3, 3), stride=(1, 1), padding=(1, 1))
          (conv2): DeformConv(
            in_channels=512, out_channels=512, kernel_size=(3, 3), stride=(1, 1), padding=(1, 1), dilation=(1, 1), groups=32, deformable_groups=1, bias=False
            (norm): FrozenBatchNorm2d(num_features=512, eps=1e-05)
          )
          (conv3): Conv2d(
            512, 512, kernel_size=(1, 1), stride=(1, 1), bias=False
            (norm): FrozenBatchNorm2d(num_features=512, eps=1e-05)
          )
        )
        (5): DeformBottleneckBlock(
          (conv1): Conv2d(
            512, 512, kernel_size=(1, 1), stride=(1, 1), bias=False
            (norm): FrozenBatchNorm2d(num_features=512, eps=1e-05)
          )
          (conv2_offset): Conv2d(512, 18, kernel_size=(3, 3), stride=(1, 1), padding=(1, 1))
          (conv2): DeformConv(
            in_channels=512, out_channels=512, kernel_size=(3, 3), stride=(1, 1), padding=(1, 1), dilation=(1, 1), groups=32, deformable_groups=1, bias=False
            (norm): FrozenBatchNorm2d(num_features=512, eps=1e-05)
          )
          (conv3): Conv2d(
            512, 512, kernel_size=(1, 1), stride=(1, 1), bias=False
            (norm): FrozenBatchNorm2d(num_features=512, eps=1e-05)
          )
        )
        (6): DeformBottleneckBlock(
          (conv1): Conv2d(
            512, 512, kernel_size=(1, 1), stride=(1, 1), bias=False
            (norm): FrozenBatchNorm2d(num_features=512, eps=1e-05)
          )
          (conv2_offset): Conv2d(512, 18, kernel_size=(3, 3), stride=(1, 1), padding=(1, 1))
          (conv2): DeformConv(
            in_channels=512, out_channels=512, kernel_size=(3, 3), stride=(1, 1), padding=(1, 1), dilation=(1, 1), groups=32, deformable_groups=1, bias=False
            (norm): FrozenBatchNorm2d(num_features=512, eps=1e-05)
          )
          (conv3): Conv2d(
            512, 512, kernel_size=(1, 1), stride=(1, 1), bias=False
            (norm): FrozenBatchNorm2d(num_features=512, eps=1e-05)
          )
        )
        (7): DeformBottleneckBlock(
          (conv1): Conv2d(
            512, 512, kernel_size=(1, 1), stride=(1, 1), bias=False
            (norm): FrozenBatchNorm2d(num_features=512, eps=1e-05)
          )
          (conv2_offset): Conv2d(512, 18, kernel_size=(3, 3), stride=(1, 1), padding=(1, 1))
          (conv2): DeformConv(
            in_channels=512, out_channels=512, kernel_size=(3, 3), stride=(1, 1), padding=(1, 1), dilation=(1, 1), groups=32, deformable_groups=1, bias=False
            (norm): FrozenBatchNorm2d(num_features=512, eps=1e-05)
          )
          (conv3): Conv2d(
            512, 512, kernel_size=(1, 1), stride=(1, 1), bias=False
            (norm): FrozenBatchNorm2d(num_features=512, eps=1e-05)
          )
        )
      )
      (res4): Sequential(
        (0): DeformBottleneckBlock(
          (shortcut): Conv2d(
            512, 1024, kernel_size=(1, 1), stride=(2, 2), bias=False
            (norm): FrozenBatchNorm2d(num_features=1024, eps=1e-05)
          )
          (conv1): Conv2d(
            512, 1024, kernel_size=(1, 1), stride=(1, 1), bias=False
            (norm): FrozenBatchNorm2d(num_features=1024, eps=1e-05)
          )
          (conv2_offset): Conv2d(1024, 18, kernel_size=(3, 3), stride=(2, 2), padding=(1, 1))
          (conv2): DeformConv(
            in_channels=1024, out_channels=1024, kernel_size=(3, 3), stride=(2, 2), padding=(1, 1), dilation=(1, 1), groups=32, deformable_groups=1, bias=False
            (norm): FrozenBatchNorm2d(num_features=1024, eps=1e-05)
          )
          (conv3): Conv2d(
            1024, 1024, kernel_size=(1, 1), stride=(1, 1), bias=False
            (norm): FrozenBatchNorm2d(num_features=1024, eps=1e-05)
          )
        )
        (1): DeformBottleneckBlock(
          (conv1): Conv2d(
            1024, 1024, kernel_size=(1, 1), stride=(1, 1), bias=False
            (norm): FrozenBatchNorm2d(num_features=1024, eps=1e-05)
          )
          (conv2_offset): Conv2d(1024, 18, kernel_size=(3, 3), stride=(1, 1), padding=(1, 1))
          (conv2): DeformConv(
            in_channels=1024, out_channels=1024, kernel_size=(3, 3), stride=(1, 1), padding=(1, 1), dilation=(1, 1), groups=32, deformable_groups=1, bias=False
            (norm): FrozenBatchNorm2d(num_features=1024, eps=1e-05)
          )
          (conv3): Conv2d(
            1024, 1024, kernel_size=(1, 1), stride=(1, 1), bias=False
            (norm): FrozenBatchNorm2d(num_features=1024, eps=1e-05)
          )
        )
        (2): DeformBottleneckBlock(
          (conv1): Conv2d(
            1024, 1024, kernel_size=(1, 1), stride=(1, 1), bias=False
            (norm): FrozenBatchNorm2d(num_features=1024, eps=1e-05)
          )
          (conv2_offset): Conv2d(1024, 18, kernel_size=(3, 3), stride=(1, 1), padding=(1, 1))
          (conv2): DeformConv(
            in_channels=1024, out_channels=1024, kernel_size=(3, 3), stride=(1, 1), padding=(1, 1), dilation=(1, 1), groups=32, deformable_groups=1, bias=False
            (norm): FrozenBatchNorm2d(num_features=1024, eps=1e-05)
          )
          (conv3): Conv2d(
            1024, 1024, kernel_size=(1, 1), stride=(1, 1), bias=False
            (norm): FrozenBatchNorm2d(num_features=1024, eps=1e-05)
          )
        )
        (3): DeformBottleneckBlock(
          (conv1): Conv2d(
            1024, 1024, kernel_size=(1, 1), stride=(1, 1), bias=False
            (norm): FrozenBatchNorm2d(num_features=1024, eps=1e-05)
          )
          (conv2_offset): Conv2d(1024, 18, kernel_size=(3, 3), stride=(1, 1), padding=(1, 1))
          (conv2): DeformConv(
            in_channels=1024, out_channels=1024, kernel_size=(3, 3), stride=(1, 1), padding=(1, 1), dilation=(1, 1), groups=32, deformable_groups=1, bias=False
            (norm): FrozenBatchNorm2d(num_features=1024, eps=1e-05)
          )
          (conv3): Conv2d(
            1024, 1024, kernel_size=(1, 1), stride=(1, 1), bias=False
            (norm): FrozenBatchNorm2d(num_features=1024, eps=1e-05)
          )
        )
        (4): DeformBottleneckBlock(
          (conv1): Conv2d(
            1024, 1024, kernel_size=(1, 1), stride=(1, 1), bias=False
            (norm): FrozenBatchNorm2d(num_features=1024, eps=1e-05)
          )
          (conv2_offset): Conv2d(1024, 18, kernel_size=(3, 3), stride=(1, 1), padding=(1, 1))
          (conv2): DeformConv(
            in_channels=1024, out_channels=1024, kernel_size=(3, 3), stride=(1, 1), padding=(1, 1), dilation=(1, 1), groups=32, deformable_groups=1, bias=False
            (norm): FrozenBatchNorm2d(num_features=1024, eps=1e-05)
          )
          (conv3): Conv2d(
            1024, 1024, kernel_size=(1, 1), stride=(1, 1), bias=False
            (norm): FrozenBatchNorm2d(num_features=1024, eps=1e-05)
          )
        )
        (5): DeformBottleneckBlock(
          (conv1): Conv2d(
            1024, 1024, kernel_size=(1, 1), stride=(1, 1), bias=False
            (norm): FrozenBatchNorm2d(num_features=1024, eps=1e-05)
          )
          (conv2_offset): Conv2d(1024, 18, kernel_size=(3, 3), stride=(1, 1), padding=(1, 1))
          (conv2): DeformConv(
            in_channels=1024, out_channels=1024, kernel_size=(3, 3), stride=(1, 1), padding=(1, 1), dilation=(1, 1), groups=32, deformable_groups=1, bias=False
            (norm): FrozenBatchNorm2d(num_features=1024, eps=1e-05)
          )
          (conv3): Conv2d(
            1024, 1024, kernel_size=(1, 1), stride=(1, 1), bias=False
            (norm): FrozenBatchNorm2d(num_features=1024, eps=1e-05)
          )
        )
        (6): DeformBottleneckBlock(
          (conv1): Conv2d(
            1024, 1024, kernel_size=(1, 1), stride=(1, 1), bias=False
            (norm): FrozenBatchNorm2d(num_features=1024, eps=1e-05)
          )
          (conv2_offset): Conv2d(1024, 18, kernel_size=(3, 3), stride=(1, 1), padding=(1, 1))
          (conv2): DeformConv(
            in_channels=1024, out_channels=1024, kernel_size=(3, 3), stride=(1, 1), padding=(1, 1), dilation=(1, 1), groups=32, deformable_groups=1, bias=False
            (norm): FrozenBatchNorm2d(num_features=1024, eps=1e-05)
          )
          (conv3): Conv2d(
            1024, 1024, kernel_size=(1, 1), stride=(1, 1), bias=False
            (norm): FrozenBatchNorm2d(num_features=1024, eps=1e-05)
          )
        )
        (7): DeformBottleneckBlock(
          (conv1): Conv2d(
            1024, 1024, kernel_size=(1, 1), stride=(1, 1), bias=False
            (norm): FrozenBatchNorm2d(num_features=1024, eps=1e-05)
          )
          (conv2_offset): Conv2d(1024, 18, kernel_size=(3, 3), stride=(1, 1), padding=(1, 1))
          (conv2): DeformConv(
            in_channels=1024, out_channels=1024, kernel_size=(3, 3), stride=(1, 1), padding=(1, 1), dilation=(1, 1), groups=32, deformable_groups=1, bias=False
            (norm): FrozenBatchNorm2d(num_features=1024, eps=1e-05)
          )
          (conv3): Conv2d(
            1024, 1024, kernel_size=(1, 1), stride=(1, 1), bias=False
            (norm): FrozenBatchNorm2d(num_features=1024, eps=1e-05)
          )
        )
        (8): DeformBottleneckBlock(
          (conv1): Conv2d(
            1024, 1024, kernel_size=(1, 1), stride=(1, 1), bias=False
            (norm): FrozenBatchNorm2d(num_features=1024, eps=1e-05)
          )
          (conv2_offset): Conv2d(1024, 18, kernel_size=(3, 3), stride=(1, 1), padding=(1, 1))
          (conv2): DeformConv(
            in_channels=1024, out_channels=1024, kernel_size=(3, 3), stride=(1, 1), padding=(1, 1), dilation=(1, 1), groups=32, deformable_groups=1, bias=False
            (norm): FrozenBatchNorm2d(num_features=1024, eps=1e-05)
          )
          (conv3): Conv2d(
            1024, 1024, kernel_size=(1, 1), stride=(1, 1), bias=False
            (norm): FrozenBatchNorm2d(num_features=1024, eps=1e-05)
          )
        )
        (9): DeformBottleneckBlock(
          (conv1): Conv2d(
            1024, 1024, kernel_size=(1, 1), stride=(1, 1), bias=False
            (norm): FrozenBatchNorm2d(num_features=1024, eps=1e-05)
          )
          (conv2_offset): Conv2d(1024, 18, kernel_size=(3, 3), stride=(1, 1), padding=(1, 1))
          (conv2): DeformConv(
            in_channels=1024, out_channels=1024, kernel_size=(3, 3), stride=(1, 1), padding=(1, 1), dilation=(1, 1), groups=32, deformable_groups=1, bias=False
            (norm): FrozenBatchNorm2d(num_features=1024, eps=1e-05)
          )
          (conv3): Conv2d(
            1024, 1024, kernel_size=(1, 1), stride=(1, 1), bias=False
            (norm): FrozenBatchNorm2d(num_features=1024, eps=1e-05)
          )
        )
        (10): DeformBottleneckBlock(
          (conv1): Conv2d(
            1024, 1024, kernel_size=(1, 1), stride=(1, 1), bias=False
            (norm): FrozenBatchNorm2d(num_features=1024, eps=1e-05)
          )
          (conv2_offset): Conv2d(1024, 18, kernel_size=(3, 3), stride=(1, 1), padding=(1, 1))
          (conv2): DeformConv(
            in_channels=1024, out_channels=1024, kernel_size=(3, 3), stride=(1, 1), padding=(1, 1), dilation=(1, 1), groups=32, deformable_groups=1, bias=False
            (norm): FrozenBatchNorm2d(num_features=1024, eps=1e-05)
          )
          (conv3): Conv2d(
            1024, 1024, kernel_size=(1, 1), stride=(1, 1), bias=False
            (norm): FrozenBatchNorm2d(num_features=1024, eps=1e-05)
          )
        )
        (11): DeformBottleneckBlock(
          (conv1): Conv2d(
            1024, 1024, kernel_size=(1, 1), stride=(1, 1), bias=False
            (norm): FrozenBatchNorm2d(num_features=1024, eps=1e-05)
          )
          (conv2_offset): Conv2d(1024, 18, kernel_size=(3, 3), stride=(1, 1), padding=(1, 1))
          (conv2): DeformConv(
            in_channels=1024, out_channels=1024, kernel_size=(3, 3), stride=(1, 1), padding=(1, 1), dilation=(1, 1), groups=32, deformable_groups=1, bias=False
            (norm): FrozenBatchNorm2d(num_features=1024, eps=1e-05)
          )
          (conv3): Conv2d(
            1024, 1024, kernel_size=(1, 1), stride=(1, 1), bias=False
            (norm): FrozenBatchNorm2d(num_features=1024, eps=1e-05)
          )
        )
        (12): DeformBottleneckBlock(
          (conv1): Conv2d(
            1024, 1024, kernel_size=(1, 1), stride=(1, 1), bias=False
            (norm): FrozenBatchNorm2d(num_features=1024, eps=1e-05)
          )
          (conv2_offset): Conv2d(1024, 18, kernel_size=(3, 3), stride=(1, 1), padding=(1, 1))
          (conv2): DeformConv(
            in_channels=1024, out_channels=1024, kernel_size=(3, 3), stride=(1, 1), padding=(1, 1), dilation=(1, 1), groups=32, deformable_groups=1, bias=False
            (norm): FrozenBatchNorm2d(num_features=1024, eps=1e-05)
          )
          (conv3): Conv2d(
            1024, 1024, kernel_size=(1, 1), stride=(1, 1), bias=False
            (norm): FrozenBatchNorm2d(num_features=1024, eps=1e-05)
          )
        )
        (13): DeformBottleneckBlock(
          (conv1): Conv2d(
            1024, 1024, kernel_size=(1, 1), stride=(1, 1), bias=False
            (norm): FrozenBatchNorm2d(num_features=1024, eps=1e-05)
          )
          (conv2_offset): Conv2d(1024, 18, kernel_size=(3, 3), stride=(1, 1), padding=(1, 1))
          (conv2): DeformConv(
            in_channels=1024, out_channels=1024, kernel_size=(3, 3), stride=(1, 1), padding=(1, 1), dilation=(1, 1), groups=32, deformable_groups=1, bias=False
            (norm): FrozenBatchNorm2d(num_features=1024, eps=1e-05)
          )
          (conv3): Conv2d(
            1024, 1024, kernel_size=(1, 1), stride=(1, 1), bias=False
            (norm): FrozenBatchNorm2d(num_features=1024, eps=1e-05)
          )
        )
        (14): DeformBottleneckBlock(
          (conv1): Conv2d(
            1024, 1024, kernel_size=(1, 1), stride=(1, 1), bias=False
            (norm): FrozenBatchNorm2d(num_features=1024, eps=1e-05)
          )
          (conv2_offset): Conv2d(1024, 18, kernel_size=(3, 3), stride=(1, 1), padding=(1, 1))
          (conv2): DeformConv(
            in_channels=1024, out_channels=1024, kernel_size=(3, 3), stride=(1, 1), padding=(1, 1), dilation=(1, 1), groups=32, deformable_groups=1, bias=False
            (norm): FrozenBatchNorm2d(num_features=1024, eps=1e-05)
          )
          (conv3): Conv2d(
            1024, 1024, kernel_size=(1, 1), stride=(1, 1), bias=False
            (norm): FrozenBatchNorm2d(num_features=1024, eps=1e-05)
          )
        )
        (15): DeformBottleneckBlock(
          (conv1): Conv2d(
            1024, 1024, kernel_size=(1, 1), stride=(1, 1), bias=False
            (norm): FrozenBatchNorm2d(num_features=1024, eps=1e-05)
          )
          (conv2_offset): Conv2d(1024, 18, kernel_size=(3, 3), stride=(1, 1), padding=(1, 1))
          (conv2): DeformConv(
            in_channels=1024, out_channels=1024, kernel_size=(3, 3), stride=(1, 1), padding=(1, 1), dilation=(1, 1), groups=32, deformable_groups=1, bias=False
            (norm): FrozenBatchNorm2d(num_features=1024, eps=1e-05)
          )
          (conv3): Conv2d(
            1024, 1024, kernel_size=(1, 1), stride=(1, 1), bias=False
            (norm): FrozenBatchNorm2d(num_features=1024, eps=1e-05)
          )
        )
        (16): DeformBottleneckBlock(
          (conv1): Conv2d(
            1024, 1024, kernel_size=(1, 1), stride=(1, 1), bias=False
            (norm): FrozenBatchNorm2d(num_features=1024, eps=1e-05)
          )
          (conv2_offset): Conv2d(1024, 18, kernel_size=(3, 3), stride=(1, 1), padding=(1, 1))
          (conv2): DeformConv(
            in_channels=1024, out_channels=1024, kernel_size=(3, 3), stride=(1, 1), padding=(1, 1), dilation=(1, 1), groups=32, deformable_groups=1, bias=False
            (norm): FrozenBatchNorm2d(num_features=1024, eps=1e-05)
          )
          (conv3): Conv2d(
            1024, 1024, kernel_size=(1, 1), stride=(1, 1), bias=False
            (norm): FrozenBatchNorm2d(num_features=1024, eps=1e-05)
          )
        )
        (17): DeformBottleneckBlock(
          (conv1): Conv2d(
            1024, 1024, kernel_size=(1, 1), stride=(1, 1), bias=False
            (norm): FrozenBatchNorm2d(num_features=1024, eps=1e-05)
          )
          (conv2_offset): Conv2d(1024, 18, kernel_size=(3, 3), stride=(1, 1), padding=(1, 1))
          (conv2): DeformConv(
            in_channels=1024, out_channels=1024, kernel_size=(3, 3), stride=(1, 1), padding=(1, 1), dilation=(1, 1), groups=32, deformable_groups=1, bias=False
            (norm): FrozenBatchNorm2d(num_features=1024, eps=1e-05)
          )
          (conv3): Conv2d(
            1024, 1024, kernel_size=(1, 1), stride=(1, 1), bias=False
            (norm): FrozenBatchNorm2d(num_features=1024, eps=1e-05)
          )
        )
        (18): DeformBottleneckBlock(
          (conv1): Conv2d(
            1024, 1024, kernel_size=(1, 1), stride=(1, 1), bias=False
            (norm): FrozenBatchNorm2d(num_features=1024, eps=1e-05)
          )
          (conv2_offset): Conv2d(1024, 18, kernel_size=(3, 3), stride=(1, 1), padding=(1, 1))
          (conv2): DeformConv(
            in_channels=1024, out_channels=1024, kernel_size=(3, 3), stride=(1, 1), padding=(1, 1), dilation=(1, 1), groups=32, deformable_groups=1, bias=False
            (norm): FrozenBatchNorm2d(num_features=1024, eps=1e-05)
          )
          (conv3): Conv2d(
            1024, 1024, kernel_size=(1, 1), stride=(1, 1), bias=False
            (norm): FrozenBatchNorm2d(num_features=1024, eps=1e-05)
          )
        )
        (19): DeformBottleneckBlock(
          (conv1): Conv2d(
            1024, 1024, kernel_size=(1, 1), stride=(1, 1), bias=False
            (norm): FrozenBatchNorm2d(num_features=1024, eps=1e-05)
          )
          (conv2_offset): Conv2d(1024, 18, kernel_size=(3, 3), stride=(1, 1), padding=(1, 1))
          (conv2): DeformConv(
            in_channels=1024, out_channels=1024, kernel_size=(3, 3), stride=(1, 1), padding=(1, 1), dilation=(1, 1), groups=32, deformable_groups=1, bias=False
            (norm): FrozenBatchNorm2d(num_features=1024, eps=1e-05)
          )
          (conv3): Conv2d(
            1024, 1024, kernel_size=(1, 1), stride=(1, 1), bias=False
            (norm): FrozenBatchNorm2d(num_features=1024, eps=1e-05)
          )
        )
        (20): DeformBottleneckBlock(
          (conv1): Conv2d(
            1024, 1024, kernel_size=(1, 1), stride=(1, 1), bias=False
            (norm): FrozenBatchNorm2d(num_features=1024, eps=1e-05)
          )
          (conv2_offset): Conv2d(1024, 18, kernel_size=(3, 3), stride=(1, 1), padding=(1, 1))
          (conv2): DeformConv(
            in_channels=1024, out_channels=1024, kernel_size=(3, 3), stride=(1, 1), padding=(1, 1), dilation=(1, 1), groups=32, deformable_groups=1, bias=False
            (norm): FrozenBatchNorm2d(num_features=1024, eps=1e-05)
          )
          (conv3): Conv2d(
            1024, 1024, kernel_size=(1, 1), stride=(1, 1), bias=False
            (norm): FrozenBatchNorm2d(num_features=1024, eps=1e-05)
          )
        )
        (21): DeformBottleneckBlock(
          (conv1): Conv2d(
            1024, 1024, kernel_size=(1, 1), stride=(1, 1), bias=False
            (norm): FrozenBatchNorm2d(num_features=1024, eps=1e-05)
          )
          (conv2_offset): Conv2d(1024, 18, kernel_size=(3, 3), stride=(1, 1), padding=(1, 1))
          (conv2): DeformConv(
            in_channels=1024, out_channels=1024, kernel_size=(3, 3), stride=(1, 1), padding=(1, 1), dilation=(1, 1), groups=32, deformable_groups=1, bias=False
            (norm): FrozenBatchNorm2d(num_features=1024, eps=1e-05)
          )
          (conv3): Conv2d(
            1024, 1024, kernel_size=(1, 1), stride=(1, 1), bias=False
            (norm): FrozenBatchNorm2d(num_features=1024, eps=1e-05)
          )
        )
        (22): DeformBottleneckBlock(
          (conv1): Conv2d(
            1024, 1024, kernel_size=(1, 1), stride=(1, 1), bias=False
            (norm): FrozenBatchNorm2d(num_features=1024, eps=1e-05)
          )
          (conv2_offset): Conv2d(1024, 18, kernel_size=(3, 3), stride=(1, 1), padding=(1, 1))
          (conv2): DeformConv(
            in_channels=1024, out_channels=1024, kernel_size=(3, 3), stride=(1, 1), padding=(1, 1), dilation=(1, 1), groups=32, deformable_groups=1, bias=False
            (norm): FrozenBatchNorm2d(num_features=1024, eps=1e-05)
          )
          (conv3): Conv2d(
            1024, 1024, kernel_size=(1, 1), stride=(1, 1), bias=False
            (norm): FrozenBatchNorm2d(num_features=1024, eps=1e-05)
          )
        )
        (23): DeformBottleneckBlock(
          (conv1): Conv2d(
            1024, 1024, kernel_size=(1, 1), stride=(1, 1), bias=False
            (norm): FrozenBatchNorm2d(num_features=1024, eps=1e-05)
          )
          (conv2_offset): Conv2d(1024, 18, kernel_size=(3, 3), stride=(1, 1), padding=(1, 1))
          (conv2): DeformConv(
            in_channels=1024, out_channels=1024, kernel_size=(3, 3), stride=(1, 1), padding=(1, 1), dilation=(1, 1), groups=32, deformable_groups=1, bias=False
            (norm): FrozenBatchNorm2d(num_features=1024, eps=1e-05)
          )
          (conv3): Conv2d(
            1024, 1024, kernel_size=(1, 1), stride=(1, 1), bias=False
            (norm): FrozenBatchNorm2d(num_features=1024, eps=1e-05)
          )
        )
        (24): DeformBottleneckBlock(
          (conv1): Conv2d(
            1024, 1024, kernel_size=(1, 1), stride=(1, 1), bias=False
            (norm): FrozenBatchNorm2d(num_features=1024, eps=1e-05)
          )
          (conv2_offset): Conv2d(1024, 18, kernel_size=(3, 3), stride=(1, 1), padding=(1, 1))
          (conv2): DeformConv(
            in_channels=1024, out_channels=1024, kernel_size=(3, 3), stride=(1, 1), padding=(1, 1), dilation=(1, 1), groups=32, deformable_groups=1, bias=False
            (norm): FrozenBatchNorm2d(num_features=1024, eps=1e-05)
          )
          (conv3): Conv2d(
            1024, 1024, kernel_size=(1, 1), stride=(1, 1), bias=False
            (norm): FrozenBatchNorm2d(num_features=1024, eps=1e-05)
          )
        )
        (25): DeformBottleneckBlock(
          (conv1): Conv2d(
            1024, 1024, kernel_size=(1, 1), stride=(1, 1), bias=False
            (norm): FrozenBatchNorm2d(num_features=1024, eps=1e-05)
          )
          (conv2_offset): Conv2d(1024, 18, kernel_size=(3, 3), stride=(1, 1), padding=(1, 1))
          (conv2): DeformConv(
            in_channels=1024, out_channels=1024, kernel_size=(3, 3), stride=(1, 1), padding=(1, 1), dilation=(1, 1), groups=32, deformable_groups=1, bias=False
            (norm): FrozenBatchNorm2d(num_features=1024, eps=1e-05)
          )
          (conv3): Conv2d(
            1024, 1024, kernel_size=(1, 1), stride=(1, 1), bias=False
            (norm): FrozenBatchNorm2d(num_features=1024, eps=1e-05)
          )
        )
        (26): DeformBottleneckBlock(
          (conv1): Conv2d(
            1024, 1024, kernel_size=(1, 1), stride=(1, 1), bias=False
            (norm): FrozenBatchNorm2d(num_features=1024, eps=1e-05)
          )
          (conv2_offset): Conv2d(1024, 18, kernel_size=(3, 3), stride=(1, 1), padding=(1, 1))
          (conv2): DeformConv(
            in_channels=1024, out_channels=1024, kernel_size=(3, 3), stride=(1, 1), padding=(1, 1), dilation=(1, 1), groups=32, deformable_groups=1, bias=False
            (norm): FrozenBatchNorm2d(num_features=1024, eps=1e-05)
          )
          (conv3): Conv2d(
            1024, 1024, kernel_size=(1, 1), stride=(1, 1), bias=False
            (norm): FrozenBatchNorm2d(num_features=1024, eps=1e-05)
          )
        )
        (27): DeformBottleneckBlock(
          (conv1): Conv2d(
            1024, 1024, kernel_size=(1, 1), stride=(1, 1), bias=False
            (norm): FrozenBatchNorm2d(num_features=1024, eps=1e-05)
          )
          (conv2_offset): Conv2d(1024, 18, kernel_size=(3, 3), stride=(1, 1), padding=(1, 1))
          (conv2): DeformConv(
            in_channels=1024, out_channels=1024, kernel_size=(3, 3), stride=(1, 1), padding=(1, 1), dilation=(1, 1), groups=32, deformable_groups=1, bias=False
            (norm): FrozenBatchNorm2d(num_features=1024, eps=1e-05)
          )
          (conv3): Conv2d(
            1024, 1024, kernel_size=(1, 1), stride=(1, 1), bias=False
            (norm): FrozenBatchNorm2d(num_features=1024, eps=1e-05)
          )
        )
        (28): DeformBottleneckBlock(
          (conv1): Conv2d(
            1024, 1024, kernel_size=(1, 1), stride=(1, 1), bias=False
            (norm): FrozenBatchNorm2d(num_features=1024, eps=1e-05)
          )
          (conv2_offset): Conv2d(1024, 18, kernel_size=(3, 3), stride=(1, 1), padding=(1, 1))
          (conv2): DeformConv(
            in_channels=1024, out_channels=1024, kernel_size=(3, 3), stride=(1, 1), padding=(1, 1), dilation=(1, 1), groups=32, deformable_groups=1, bias=False
            (norm): FrozenBatchNorm2d(num_features=1024, eps=1e-05)
          )
          (conv3): Conv2d(
            1024, 1024, kernel_size=(1, 1), stride=(1, 1), bias=False
            (norm): FrozenBatchNorm2d(num_features=1024, eps=1e-05)
          )
        )
        (29): DeformBottleneckBlock(
          (conv1): Conv2d(
            1024, 1024, kernel_size=(1, 1), stride=(1, 1), bias=False
            (norm): FrozenBatchNorm2d(num_features=1024, eps=1e-05)
          )
          (conv2_offset): Conv2d(1024, 18, kernel_size=(3, 3), stride=(1, 1), padding=(1, 1))
          (conv2): DeformConv(
            in_channels=1024, out_channels=1024, kernel_size=(3, 3), stride=(1, 1), padding=(1, 1), dilation=(1, 1), groups=32, deformable_groups=1, bias=False
            (norm): FrozenBatchNorm2d(num_features=1024, eps=1e-05)
          )
          (conv3): Conv2d(
            1024, 1024, kernel_size=(1, 1), stride=(1, 1), bias=False
            (norm): FrozenBatchNorm2d(num_features=1024, eps=1e-05)
          )
        )
        (30): DeformBottleneckBlock(
          (conv1): Conv2d(
            1024, 1024, kernel_size=(1, 1), stride=(1, 1), bias=False
            (norm): FrozenBatchNorm2d(num_features=1024, eps=1e-05)
          )
          (conv2_offset): Conv2d(1024, 18, kernel_size=(3, 3), stride=(1, 1), padding=(1, 1))
          (conv2): DeformConv(
            in_channels=1024, out_channels=1024, kernel_size=(3, 3), stride=(1, 1), padding=(1, 1), dilation=(1, 1), groups=32, deformable_groups=1, bias=False
            (norm): FrozenBatchNorm2d(num_features=1024, eps=1e-05)
          )
          (conv3): Conv2d(
            1024, 1024, kernel_size=(1, 1), stride=(1, 1), bias=False
            (norm): FrozenBatchNorm2d(num_features=1024, eps=1e-05)
          )
        )
        (31): DeformBottleneckBlock(
          (conv1): Conv2d(
            1024, 1024, kernel_size=(1, 1), stride=(1, 1), bias=False
            (norm): FrozenBatchNorm2d(num_features=1024, eps=1e-05)
          )
          (conv2_offset): Conv2d(1024, 18, kernel_size=(3, 3), stride=(1, 1), padding=(1, 1))
          (conv2): DeformConv(
            in_channels=1024, out_channels=1024, kernel_size=(3, 3), stride=(1, 1), padding=(1, 1), dilation=(1, 1), groups=32, deformable_groups=1, bias=False
            (norm): FrozenBatchNorm2d(num_features=1024, eps=1e-05)
          )
          (conv3): Conv2d(
            1024, 1024, kernel_size=(1, 1), stride=(1, 1), bias=False
            (norm): FrozenBatchNorm2d(num_features=1024, eps=1e-05)
          )
        )
        (32): DeformBottleneckBlock(
          (conv1): Conv2d(
            1024, 1024, kernel_size=(1, 1), stride=(1, 1), bias=False
            (norm): FrozenBatchNorm2d(num_features=1024, eps=1e-05)
          )
          (conv2_offset): Conv2d(1024, 18, kernel_size=(3, 3), stride=(1, 1), padding=(1, 1))
          (conv2): DeformConv(
            in_channels=1024, out_channels=1024, kernel_size=(3, 3), stride=(1, 1), padding=(1, 1), dilation=(1, 1), groups=32, deformable_groups=1, bias=False
            (norm): FrozenBatchNorm2d(num_features=1024, eps=1e-05)
          )
          (conv3): Conv2d(
            1024, 1024, kernel_size=(1, 1), stride=(1, 1), bias=False
            (norm): FrozenBatchNorm2d(num_features=1024, eps=1e-05)
          )
        )
        (33): DeformBottleneckBlock(
          (conv1): Conv2d(
            1024, 1024, kernel_size=(1, 1), stride=(1, 1), bias=False
            (norm): FrozenBatchNorm2d(num_features=1024, eps=1e-05)
          )
          (conv2_offset): Conv2d(1024, 18, kernel_size=(3, 3), stride=(1, 1), padding=(1, 1))
          (conv2): DeformConv(
            in_channels=1024, out_channels=1024, kernel_size=(3, 3), stride=(1, 1), padding=(1, 1), dilation=(1, 1), groups=32, deformable_groups=1, bias=False
            (norm): FrozenBatchNorm2d(num_features=1024, eps=1e-05)
          )
          (conv3): Conv2d(
            1024, 1024, kernel_size=(1, 1), stride=(1, 1), bias=False
            (norm): FrozenBatchNorm2d(num_features=1024, eps=1e-05)
          )
        )
        (34): DeformBottleneckBlock(
          (conv1): Conv2d(
            1024, 1024, kernel_size=(1, 1), stride=(1, 1), bias=False
            (norm): FrozenBatchNorm2d(num_features=1024, eps=1e-05)
          )
          (conv2_offset): Conv2d(1024, 18, kernel_size=(3, 3), stride=(1, 1), padding=(1, 1))
          (conv2): DeformConv(
            in_channels=1024, out_channels=1024, kernel_size=(3, 3), stride=(1, 1), padding=(1, 1), dilation=(1, 1), groups=32, deformable_groups=1, bias=False
            (norm): FrozenBatchNorm2d(num_features=1024, eps=1e-05)
          )
          (conv3): Conv2d(
            1024, 1024, kernel_size=(1, 1), stride=(1, 1), bias=False
            (norm): FrozenBatchNorm2d(num_features=1024, eps=1e-05)
          )
        )
        (35): DeformBottleneckBlock(
          (conv1): Conv2d(
            1024, 1024, kernel_size=(1, 1), stride=(1, 1), bias=False
            (norm): FrozenBatchNorm2d(num_features=1024, eps=1e-05)
          )
          (conv2_offset): Conv2d(1024, 18, kernel_size=(3, 3), stride=(1, 1), padding=(1, 1))
          (conv2): DeformConv(
            in_channels=1024, out_channels=1024, kernel_size=(3, 3), stride=(1, 1), padding=(1, 1), dilation=(1, 1), groups=32, deformable_groups=1, bias=False
            (norm): FrozenBatchNorm2d(num_features=1024, eps=1e-05)
          )
          (conv3): Conv2d(
            1024, 1024, kernel_size=(1, 1), stride=(1, 1), bias=False
            (norm): FrozenBatchNorm2d(num_features=1024, eps=1e-05)
          )
        )
      )
      (res5): Sequential(
        (0): DeformBottleneckBlock(
          (shortcut): Conv2d(
            1024, 2048, kernel_size=(1, 1), stride=(2, 2), bias=False
            (norm): FrozenBatchNorm2d(num_features=2048, eps=1e-05)
          )
          (conv1): Conv2d(
            1024, 2048, kernel_size=(1, 1), stride=(1, 1), bias=False
            (norm): FrozenBatchNorm2d(num_features=2048, eps=1e-05)
          )
          (conv2_offset): Conv2d(2048, 18, kernel_size=(3, 3), stride=(2, 2), padding=(1, 1))
          (conv2): DeformConv(
            in_channels=2048, out_channels=2048, kernel_size=(3, 3), stride=(2, 2), padding=(1, 1), dilation=(1, 1), groups=32, deformable_groups=1, bias=False
            (norm): FrozenBatchNorm2d(num_features=2048, eps=1e-05)
          )
          (conv3): Conv2d(
            2048, 2048, kernel_size=(1, 1), stride=(1, 1), bias=False
            (norm): FrozenBatchNorm2d(num_features=2048, eps=1e-05)
          )
        )
        (1): DeformBottleneckBlock(
          (conv1): Conv2d(
            2048, 2048, kernel_size=(1, 1), stride=(1, 1), bias=False
            (norm): FrozenBatchNorm2d(num_features=2048, eps=1e-05)
          )
          (conv2_offset): Conv2d(2048, 18, kernel_size=(3, 3), stride=(1, 1), padding=(1, 1))
          (conv2): DeformConv(
            in_channels=2048, out_channels=2048, kernel_size=(3, 3), stride=(1, 1), padding=(1, 1), dilation=(1, 1), groups=32, deformable_groups=1, bias=False
            (norm): FrozenBatchNorm2d(num_features=2048, eps=1e-05)
          )
          (conv3): Conv2d(
            2048, 2048, kernel_size=(1, 1), stride=(1, 1), bias=False
            (norm): FrozenBatchNorm2d(num_features=2048, eps=1e-05)
          )
        )
        (2): DeformBottleneckBlock(
          (conv1): Conv2d(
            2048, 2048, kernel_size=(1, 1), stride=(1, 1), bias=False
            (norm): FrozenBatchNorm2d(num_features=2048, eps=1e-05)
          )
          (conv2_offset): Conv2d(2048, 18, kernel_size=(3, 3), stride=(1, 1), padding=(1, 1))
          (conv2): DeformConv(
            in_channels=2048, out_channels=2048, kernel_size=(3, 3), stride=(1, 1), padding=(1, 1), dilation=(1, 1), groups=32, deformable_groups=1, bias=False
            (norm): FrozenBatchNorm2d(num_features=2048, eps=1e-05)
          )
          (conv3): Conv2d(
            2048, 2048, kernel_size=(1, 1), stride=(1, 1), bias=False
            (norm): FrozenBatchNorm2d(num_features=2048, eps=1e-05)
          )
        )
      )
    )
  )
  (proposal_generator): RPN(
    (rpn_head): StandardRPNHead(
      (conv): Conv2d(
        256, 256, kernel_size=(3, 3), stride=(1, 1), padding=(1, 1)
        (activation): ReLU()
      )
      (objectness_logits): Conv2d(256, 3, kernel_size=(1, 1), stride=(1, 1))
      (anchor_deltas): Conv2d(256, 12, kernel_size=(1, 1), stride=(1, 1))
    )
    (anchor_generator): DefaultAnchorGenerator(
      (cell_anchors): BufferList()
    )
  )
  (roi_heads): CascadeROIHeads(
    (box_pooler): ROIPooler(
      (level_poolers): ModuleList(
        (0): ROIAlign(output_size=(7, 7), spatial_scale=0.25, sampling_ratio=0, aligned=True)
        (1): ROIAlign(output_size=(7, 7), spatial_scale=0.125, sampling_ratio=0, aligned=True)
        (2): ROIAlign(output_size=(7, 7), spatial_scale=0.0625, sampling_ratio=0, aligned=True)
        (3): ROIAlign(output_size=(7, 7), spatial_scale=0.03125, sampling_ratio=0, aligned=True)
      )
    )
    (box_head): ModuleList(
      (0): FastRCNNConvFCHead(
        (conv1): Conv2d(
          256, 256, kernel_size=(3, 3), stride=(1, 1), padding=(1, 1), bias=False
          (norm): GroupNorm(32, 256, eps=1e-05, affine=True)
          (activation): ReLU()
        )
        (conv2): Conv2d(
          256, 256, kernel_size=(3, 3), stride=(1, 1), padding=(1, 1), bias=False
          (norm): GroupNorm(32, 256, eps=1e-05, affine=True)
          (activation): ReLU()
        )
        (conv3): Conv2d(
          256, 256, kernel_size=(3, 3), stride=(1, 1), padding=(1, 1), bias=False
          (norm): GroupNorm(32, 256, eps=1e-05, affine=True)
          (activation): ReLU()
        )
        (conv4): Conv2d(
          256, 256, kernel_size=(3, 3), stride=(1, 1), padding=(1, 1), bias=False
          (norm): GroupNorm(32, 256, eps=1e-05, affine=True)
          (activation): ReLU()
        )
        (flatten): Flatten(start_dim=1, end_dim=-1)
        (fc1): Linear(in_features=12544, out_features=1024, bias=True)
        (fc_relu1): ReLU()
      )
      (1): FastRCNNConvFCHead(
        (conv1): Conv2d(
          256, 256, kernel_size=(3, 3), stride=(1, 1), padding=(1, 1), bias=False
          (norm): GroupNorm(32, 256, eps=1e-05, affine=True)
          (activation): ReLU()
        )
        (conv2): Conv2d(
          256, 256, kernel_size=(3, 3), stride=(1, 1), padding=(1, 1), bias=False
          (norm): GroupNorm(32, 256, eps=1e-05, affine=True)
          (activation): ReLU()
        )
        (conv3): Conv2d(
          256, 256, kernel_size=(3, 3), stride=(1, 1), padding=(1, 1), bias=False
          (norm): GroupNorm(32, 256, eps=1e-05, affine=True)
          (activation): ReLU()
        )
        (conv4): Conv2d(
          256, 256, kernel_size=(3, 3), stride=(1, 1), padding=(1, 1), bias=False
          (norm): GroupNorm(32, 256, eps=1e-05, affine=True)
          (activation): ReLU()
        )
        (flatten): Flatten(start_dim=1, end_dim=-1)
        (fc1): Linear(in_features=12544, out_features=1024, bias=True)
        (fc_relu1): ReLU()
      )
      (2): FastRCNNConvFCHead(
        (conv1): Conv2d(
          256, 256, kernel_size=(3, 3), stride=(1, 1), padding=(1, 1), bias=False
          (norm): GroupNorm(32, 256, eps=1e-05, affine=True)
          (activation): ReLU()
        )
        (conv2): Conv2d(
          256, 256, kernel_size=(3, 3), stride=(1, 1), padding=(1, 1), bias=False
          (norm): GroupNorm(32, 256, eps=1e-05, affine=True)
          (activation): ReLU()
        )
        (conv3): Conv2d(
          256, 256, kernel_size=(3, 3), stride=(1, 1), padding=(1, 1), bias=False
          (norm): GroupNorm(32, 256, eps=1e-05, affine=True)
          (activation): ReLU()
        )
        (conv4): Conv2d(
          256, 256, kernel_size=(3, 3), stride=(1, 1), padding=(1, 1), bias=False
          (norm): GroupNorm(32, 256, eps=1e-05, affine=True)
          (activation): ReLU()
        )
        (flatten): Flatten(start_dim=1, end_dim=-1)
        (fc1): Linear(in_features=12544, out_features=1024, bias=True)
        (fc_relu1): ReLU()
      )
    )
    (box_predictor): ModuleList(
      (0): FastRCNNOutputLayers(
        (cls_score): Linear(in_features=1024, out_features=4, bias=True)
        (bbox_pred): Linear(in_features=1024, out_features=4, bias=True)
      )
      (1): FastRCNNOutputLayers(
        (cls_score): Linear(in_features=1024, out_features=4, bias=True)
        (bbox_pred): Linear(in_features=1024, out_features=4, bias=True)
      )
      (2): FastRCNNOutputLayers(
        (cls_score): Linear(in_features=1024, out_features=4, bias=True)
        (bbox_pred): Linear(in_features=1024, out_features=4, bias=True)
      )
    )
    (mask_pooler): ROIPooler(
      (level_poolers): ModuleList(
        (0): ROIAlign(output_size=(14, 14), spatial_scale=0.25, sampling_ratio=0, aligned=True)
        (1): ROIAlign(output_size=(14, 14), spatial_scale=0.125, sampling_ratio=0, aligned=True)
        (2): ROIAlign(output_size=(14, 14), spatial_scale=0.0625, sampling_ratio=0, aligned=True)
        (3): ROIAlign(output_size=(14, 14), spatial_scale=0.03125, sampling_ratio=0, aligned=True)
      )
    )
    (mask_head): MaskRCNNConvUpsampleHead(
      (mask_fcn1): Conv2d(
        256, 256, kernel_size=(3, 3), stride=(1, 1), padding=(1, 1), bias=False
        (norm): GroupNorm(32, 256, eps=1e-05, affine=True)
        (activation): ReLU()
      )
      (mask_fcn2): Conv2d(
        256, 256, kernel_size=(3, 3), stride=(1, 1), padding=(1, 1), bias=False
        (norm): GroupNorm(32, 256, eps=1e-05, affine=True)
        (activation): ReLU()
      )
      (mask_fcn3): Conv2d(
        256, 256, kernel_size=(3, 3), stride=(1, 1), padding=(1, 1), bias=False
        (norm): GroupNorm(32, 256, eps=1e-05, affine=True)
        (activation): ReLU()
      )
      (mask_fcn4): Conv2d(
        256, 256, kernel_size=(3, 3), stride=(1, 1), padding=(1, 1), bias=False
        (norm): GroupNorm(32, 256, eps=1e-05, affine=True)
        (activation): ReLU()
      )
      (mask_fcn5): Conv2d(
        256, 256, kernel_size=(3, 3), stride=(1, 1), padding=(1, 1), bias=False
        (norm): GroupNorm(32, 256, eps=1e-05, affine=True)
        (activation): ReLU()
      )
      (mask_fcn6): Conv2d(
        256, 256, kernel_size=(3, 3), stride=(1, 1), padding=(1, 1), bias=False
        (norm): GroupNorm(32, 256, eps=1e-05, affine=True)
        (activation): ReLU()
      )
      (mask_fcn7): Conv2d(
        256, 256, kernel_size=(3, 3), stride=(1, 1), padding=(1, 1), bias=False
        (norm): GroupNorm(32, 256, eps=1e-05, affine=True)
        (activation): ReLU()
      )
      (mask_fcn8): Conv2d(
        256, 256, kernel_size=(3, 3), stride=(1, 1), padding=(1, 1), bias=False
        (norm): GroupNorm(32, 256, eps=1e-05, affine=True)
        (activation): ReLU()
      )
      (deconv): ConvTranspose2d(256, 256, kernel_size=(2, 2), stride=(2, 2))
      (deconv_relu): ReLU()
      (predictor): Conv2d(256, 3, kernel_size=(1, 1), stride=(1, 1))
    )
  )
)
[32m[12/16 10:58:43 d2.engine.defaults]: [0mModel:
GeneralizedRCNN(
  (backbone): FPN(
    (fpn_lateral2): Conv2d(256, 256, kernel_size=(1, 1), stride=(1, 1))
    (fpn_output2): Conv2d(256, 256, kernel_size=(3, 3), stride=(1, 1), padding=(1, 1))
    (fpn_lateral3): Conv2d(512, 256, kernel_size=(1, 1), stride=(1, 1))
    (fpn_output3): Conv2d(256, 256, kernel_size=(3, 3), stride=(1, 1), padding=(1, 1))
    (fpn_lateral4): Conv2d(1024, 256, kernel_size=(1, 1), stride=(1, 1))
    (fpn_output4): Conv2d(256, 256, kernel_size=(3, 3), stride=(1, 1), padding=(1, 1))
    (fpn_lateral5): Conv2d(2048, 256, kernel_size=(1, 1), stride=(1, 1))
    (fpn_output5): Conv2d(256, 256, kernel_size=(3, 3), stride=(1, 1), padding=(1, 1))
    (top_block): LastLevelMaxPool()
    (bottom_up): ResNet(
      (stem): BasicStem(
        (conv1): Conv2d(
          3, 64, kernel_size=(7, 7), stride=(2, 2), padding=(3, 3), bias=False
          (norm): FrozenBatchNorm2d(num_features=64, eps=1e-05)
        )
      )
      (res2): Sequential(
        (0): BottleneckBlock(
          (shortcut): Conv2d(
            64, 256, kernel_size=(1, 1), stride=(1, 1), bias=False
            (norm): FrozenBatchNorm2d(num_features=256, eps=1e-05)
          )
          (conv1): Conv2d(
            64, 256, kernel_size=(1, 1), stride=(1, 1), bias=False
            (norm): FrozenBatchNorm2d(num_features=256, eps=1e-05)
          )
          (conv2): Conv2d(
            256, 256, kernel_size=(3, 3), stride=(1, 1), padding=(1, 1), groups=32, bias=False
            (norm): FrozenBatchNorm2d(num_features=256, eps=1e-05)
          )
          (conv3): Conv2d(
            256, 256, kernel_size=(1, 1), stride=(1, 1), bias=False
            (norm): FrozenBatchNorm2d(num_features=256, eps=1e-05)
          )
        )
        (1): BottleneckBlock(
          (conv1): Conv2d(
            256, 256, kernel_size=(1, 1), stride=(1, 1), bias=False
            (norm): FrozenBatchNorm2d(num_features=256, eps=1e-05)
          )
          (conv2): Conv2d(
            256, 256, kernel_size=(3, 3), stride=(1, 1), padding=(1, 1), groups=32, bias=False
            (norm): FrozenBatchNorm2d(num_features=256, eps=1e-05)
          )
          (conv3): Conv2d(
            256, 256, kernel_size=(1, 1), stride=(1, 1), bias=False
            (norm): FrozenBatchNorm2d(num_features=256, eps=1e-05)
          )
        )
        (2): BottleneckBlock(
          (conv1): Conv2d(
            256, 256, kernel_size=(1, 1), stride=(1, 1), bias=False
            (norm): FrozenBatchNorm2d(num_features=256, eps=1e-05)
          )
          (conv2): Conv2d(
            256, 256, kernel_size=(3, 3), stride=(1, 1), padding=(1, 1), groups=32, bias=False
            (norm): FrozenBatchNorm2d(num_features=256, eps=1e-05)
          )
          (conv3): Conv2d(
            256, 256, kernel_size=(1, 1), stride=(1, 1), bias=False
            (norm): FrozenBatchNorm2d(num_features=256, eps=1e-05)
          )
        )
      )
      (res3): Sequential(
        (0): DeformBottleneckBlock(
          (shortcut): Conv2d(
            256, 512, kernel_size=(1, 1), stride=(2, 2), bias=False
            (norm): FrozenBatchNorm2d(num_features=512, eps=1e-05)
          )
          (conv1): Conv2d(
            256, 512, kernel_size=(1, 1), stride=(1, 1), bias=False
            (norm): FrozenBatchNorm2d(num_features=512, eps=1e-05)
          )
          (conv2_offset): Conv2d(512, 18, kernel_size=(3, 3), stride=(2, 2), padding=(1, 1))
          (conv2): DeformConv(
            in_channels=512, out_channels=512, kernel_size=(3, 3), stride=(2, 2), padding=(1, 1), dilation=(1, 1), groups=32, deformable_groups=1, bias=False
            (norm): FrozenBatchNorm2d(num_features=512, eps=1e-05)
          )
          (conv3): Conv2d(
            512, 512, kernel_size=(1, 1), stride=(1, 1), bias=False
            (norm): FrozenBatchNorm2d(num_features=512, eps=1e-05)
          )
        )
        (1): DeformBottleneckBlock(
          (conv1): Conv2d(
            512, 512, kernel_size=(1, 1), stride=(1, 1), bias=False
            (norm): FrozenBatchNorm2d(num_features=512, eps=1e-05)
          )
          (conv2_offset): Conv2d(512, 18, kernel_size=(3, 3), stride=(1, 1), padding=(1, 1))
          (conv2): DeformConv(
            in_channels=512, out_channels=512, kernel_size=(3, 3), stride=(1, 1), padding=(1, 1), dilation=(1, 1), groups=32, deformable_groups=1, bias=False
            (norm): FrozenBatchNorm2d(num_features=512, eps=1e-05)
          )
          (conv3): Conv2d(
            512, 512, kernel_size=(1, 1), stride=(1, 1), bias=False
            (norm): FrozenBatchNorm2d(num_features=512, eps=1e-05)
          )
        )
        (2): DeformBottleneckBlock(
          (conv1): Conv2d(
            512, 512, kernel_size=(1, 1), stride=(1, 1), bias=False
            (norm): FrozenBatchNorm2d(num_features=512, eps=1e-05)
          )
          (conv2_offset): Conv2d(512, 18, kernel_size=(3, 3), stride=(1, 1), padding=(1, 1))
          (conv2): DeformConv(
            in_channels=512, out_channels=512, kernel_size=(3, 3), stride=(1, 1), padding=(1, 1), dilation=(1, 1), groups=32, deformable_groups=1, bias=False
            (norm): FrozenBatchNorm2d(num_features=512, eps=1e-05)
          )
          (conv3): Conv2d(
            512, 512, kernel_size=(1, 1), stride=(1, 1), bias=False
            (norm): FrozenBatchNorm2d(num_features=512, eps=1e-05)
          )
        )
        (3): DeformBottleneckBlock(
          (conv1): Conv2d(
            512, 512, kernel_size=(1, 1), stride=(1, 1), bias=False
            (norm): FrozenBatchNorm2d(num_features=512, eps=1e-05)
          )
          (conv2_offset): Conv2d(512, 18, kernel_size=(3, 3), stride=(1, 1), padding=(1, 1))
          (conv2): DeformConv(
            in_channels=512, out_channels=512, kernel_size=(3, 3), stride=(1, 1), padding=(1, 1), dilation=(1, 1), groups=32, deformable_groups=1, bias=False
            (norm): FrozenBatchNorm2d(num_features=512, eps=1e-05)
          )
          (conv3): Conv2d(
            512, 512, kernel_size=(1, 1), stride=(1, 1), bias=False
            (norm): FrozenBatchNorm2d(num_features=512, eps=1e-05)
          )
        )
        (4): DeformBottleneckBlock(
          (conv1): Conv2d(
            512, 512, kernel_size=(1, 1), stride=(1, 1), bias=False
            (norm): FrozenBatchNorm2d(num_features=512, eps=1e-05)
          )
          (conv2_offset): Conv2d(512, 18, kernel_size=(3, 3), stride=(1, 1), padding=(1, 1))
          (conv2): DeformConv(
            in_channels=512, out_channels=512, kernel_size=(3, 3), stride=(1, 1), padding=(1, 1), dilation=(1, 1), groups=32, deformable_groups=1, bias=False
            (norm): FrozenBatchNorm2d(num_features=512, eps=1e-05)
          )
          (conv3): Conv2d(
            512, 512, kernel_size=(1, 1), stride=(1, 1), bias=False
            (norm): FrozenBatchNorm2d(num_features=512, eps=1e-05)
          )
        )
        (5): DeformBottleneckBlock(
          (conv1): Conv2d(
            512, 512, kernel_size=(1, 1), stride=(1, 1), bias=False
            (norm): FrozenBatchNorm2d(num_features=512, eps=1e-05)
          )
          (conv2_offset): Conv2d(512, 18, kernel_size=(3, 3), stride=(1, 1), padding=(1, 1))
          (conv2): DeformConv(
            in_channels=512, out_channels=512, kernel_size=(3, 3), stride=(1, 1), padding=(1, 1), dilation=(1, 1), groups=32, deformable_groups=1, bias=False
            (norm): FrozenBatchNorm2d(num_features=512, eps=1e-05)
          )
          (conv3): Conv2d(
            512, 512, kernel_size=(1, 1), stride=(1, 1), bias=False
            (norm): FrozenBatchNorm2d(num_features=512, eps=1e-05)
          )
        )
        (6): DeformBottleneckBlock(
          (conv1): Conv2d(
            512, 512, kernel_size=(1, 1), stride=(1, 1), bias=False
            (norm): FrozenBatchNorm2d(num_features=512, eps=1e-05)
          )
          (conv2_offset): Conv2d(512, 18, kernel_size=(3, 3), stride=(1, 1), padding=(1, 1))
          (conv2): DeformConv(
            in_channels=512, out_channels=512, kernel_size=(3, 3), stride=(1, 1), padding=(1, 1), dilation=(1, 1), groups=32, deformable_groups=1, bias=False
            (norm): FrozenBatchNorm2d(num_features=512, eps=1e-05)
          )
          (conv3): Conv2d(
            512, 512, kernel_size=(1, 1), stride=(1, 1), bias=False
            (norm): FrozenBatchNorm2d(num_features=512, eps=1e-05)
          )
        )
        (7): DeformBottleneckBlock(
          (conv1): Conv2d(
            512, 512, kernel_size=(1, 1), stride=(1, 1), bias=False
            (norm): FrozenBatchNorm2d(num_features=512, eps=1e-05)
          )
          (conv2_offset): Conv2d(512, 18, kernel_size=(3, 3), stride=(1, 1), padding=(1, 1))
          (conv2): DeformConv(
            in_channels=512, out_channels=512, kernel_size=(3, 3), stride=(1, 1), padding=(1, 1), dilation=(1, 1), groups=32, deformable_groups=1, bias=False
            (norm): FrozenBatchNorm2d(num_features=512, eps=1e-05)
          )
          (conv3): Conv2d(
            512, 512, kernel_size=(1, 1), stride=(1, 1), bias=False
            (norm): FrozenBatchNorm2d(num_features=512, eps=1e-05)
          )
        )
      )
      (res4): Sequential(
        (0): DeformBottleneckBlock(
          (shortcut): Conv2d(
            512, 1024, kernel_size=(1, 1), stride=(2, 2), bias=False
            (norm): FrozenBatchNorm2d(num_features=1024, eps=1e-05)
          )
          (conv1): Conv2d(
            512, 1024, kernel_size=(1, 1), stride=(1, 1), bias=False
            (norm): FrozenBatchNorm2d(num_features=1024, eps=1e-05)
          )
          (conv2_offset): Conv2d(1024, 18, kernel_size=(3, 3), stride=(2, 2), padding=(1, 1))
          (conv2): DeformConv(
            in_channels=1024, out_channels=1024, kernel_size=(3, 3), stride=(2, 2), padding=(1, 1), dilation=(1, 1), groups=32, deformable_groups=1, bias=False
            (norm): FrozenBatchNorm2d(num_features=1024, eps=1e-05)
          )
          (conv3): Conv2d(
            1024, 1024, kernel_size=(1, 1), stride=(1, 1), bias=False
            (norm): FrozenBatchNorm2d(num_features=1024, eps=1e-05)
          )
        )
        (1): DeformBottleneckBlock(
          (conv1): Conv2d(
            1024, 1024, kernel_size=(1, 1), stride=(1, 1), bias=False
            (norm): FrozenBatchNorm2d(num_features=1024, eps=1e-05)
          )
          (conv2_offset): Conv2d(1024, 18, kernel_size=(3, 3), stride=(1, 1), padding=(1, 1))
          (conv2): DeformConv(
            in_channels=1024, out_channels=1024, kernel_size=(3, 3), stride=(1, 1), padding=(1, 1), dilation=(1, 1), groups=32, deformable_groups=1, bias=False
            (norm): FrozenBatchNorm2d(num_features=1024, eps=1e-05)
          )
          (conv3): Conv2d(
            1024, 1024, kernel_size=(1, 1), stride=(1, 1), bias=False
            (norm): FrozenBatchNorm2d(num_features=1024, eps=1e-05)
          )
        )
        (2): DeformBottleneckBlock(
          (conv1): Conv2d(
            1024, 1024, kernel_size=(1, 1), stride=(1, 1), bias=False
            (norm): FrozenBatchNorm2d(num_features=1024, eps=1e-05)
          )
          (conv2_offset): Conv2d(1024, 18, kernel_size=(3, 3), stride=(1, 1), padding=(1, 1))
          (conv2): DeformConv(
            in_channels=1024, out_channels=1024, kernel_size=(3, 3), stride=(1, 1), padding=(1, 1), dilation=(1, 1), groups=32, deformable_groups=1, bias=False
            (norm): FrozenBatchNorm2d(num_features=1024, eps=1e-05)
          )
          (conv3): Conv2d(
            1024, 1024, kernel_size=(1, 1), stride=(1, 1), bias=False
            (norm): FrozenBatchNorm2d(num_features=1024, eps=1e-05)
          )
        )
        (3): DeformBottleneckBlock(
          (conv1): Conv2d(
            1024, 1024, kernel_size=(1, 1), stride=(1, 1), bias=False
            (norm): FrozenBatchNorm2d(num_features=1024, eps=1e-05)
          )
          (conv2_offset): Conv2d(1024, 18, kernel_size=(3, 3), stride=(1, 1), padding=(1, 1))
          (conv2): DeformConv(
            in_channels=1024, out_channels=1024, kernel_size=(3, 3), stride=(1, 1), padding=(1, 1), dilation=(1, 1), groups=32, deformable_groups=1, bias=False
            (norm): FrozenBatchNorm2d(num_features=1024, eps=1e-05)
          )
          (conv3): Conv2d(
            1024, 1024, kernel_size=(1, 1), stride=(1, 1), bias=False
            (norm): FrozenBatchNorm2d(num_features=1024, eps=1e-05)
          )
        )
        (4): DeformBottleneckBlock(
          (conv1): Conv2d(
            1024, 1024, kernel_size=(1, 1), stride=(1, 1), bias=False
            (norm): FrozenBatchNorm2d(num_features=1024, eps=1e-05)
          )
          (conv2_offset): Conv2d(1024, 18, kernel_size=(3, 3), stride=(1, 1), padding=(1, 1))
          (conv2): DeformConv(
            in_channels=1024, out_channels=1024, kernel_size=(3, 3), stride=(1, 1), padding=(1, 1), dilation=(1, 1), groups=32, deformable_groups=1, bias=False
            (norm): FrozenBatchNorm2d(num_features=1024, eps=1e-05)
          )
          (conv3): Conv2d(
            1024, 1024, kernel_size=(1, 1), stride=(1, 1), bias=False
            (norm): FrozenBatchNorm2d(num_features=1024, eps=1e-05)
          )
        )
        (5): DeformBottleneckBlock(
          (conv1): Conv2d(
            1024, 1024, kernel_size=(1, 1), stride=(1, 1), bias=False
            (norm): FrozenBatchNorm2d(num_features=1024, eps=1e-05)
          )
          (conv2_offset): Conv2d(1024, 18, kernel_size=(3, 3), stride=(1, 1), padding=(1, 1))
          (conv2): DeformConv(
            in_channels=1024, out_channels=1024, kernel_size=(3, 3), stride=(1, 1), padding=(1, 1), dilation=(1, 1), groups=32, deformable_groups=1, bias=False
            (norm): FrozenBatchNorm2d(num_features=1024, eps=1e-05)
          )
          (conv3): Conv2d(
            1024, 1024, kernel_size=(1, 1), stride=(1, 1), bias=False
            (norm): FrozenBatchNorm2d(num_features=1024, eps=1e-05)
          )
        )
        (6): DeformBottleneckBlock(
          (conv1): Conv2d(
            1024, 1024, kernel_size=(1, 1), stride=(1, 1), bias=False
            (norm): FrozenBatchNorm2d(num_features=1024, eps=1e-05)
          )
          (conv2_offset): Conv2d(1024, 18, kernel_size=(3, 3), stride=(1, 1), padding=(1, 1))
          (conv2): DeformConv(
            in_channels=1024, out_channels=1024, kernel_size=(3, 3), stride=(1, 1), padding=(1, 1), dilation=(1, 1), groups=32, deformable_groups=1, bias=False
            (norm): FrozenBatchNorm2d(num_features=1024, eps=1e-05)
          )
          (conv3): Conv2d(
            1024, 1024, kernel_size=(1, 1), stride=(1, 1), bias=False
            (norm): FrozenBatchNorm2d(num_features=1024, eps=1e-05)
          )
        )
        (7): DeformBottleneckBlock(
          (conv1): Conv2d(
            1024, 1024, kernel_size=(1, 1), stride=(1, 1), bias=False
            (norm): FrozenBatchNorm2d(num_features=1024, eps=1e-05)
          )
          (conv2_offset): Conv2d(1024, 18, kernel_size=(3, 3), stride=(1, 1), padding=(1, 1))
          (conv2): DeformConv(
            in_channels=1024, out_channels=1024, kernel_size=(3, 3), stride=(1, 1), padding=(1, 1), dilation=(1, 1), groups=32, deformable_groups=1, bias=False
            (norm): FrozenBatchNorm2d(num_features=1024, eps=1e-05)
          )
          (conv3): Conv2d(
            1024, 1024, kernel_size=(1, 1), stride=(1, 1), bias=False
            (norm): FrozenBatchNorm2d(num_features=1024, eps=1e-05)
          )
        )
        (8): DeformBottleneckBlock(
          (conv1): Conv2d(
            1024, 1024, kernel_size=(1, 1), stride=(1, 1), bias=False
            (norm): FrozenBatchNorm2d(num_features=1024, eps=1e-05)
          )
          (conv2_offset): Conv2d(1024, 18, kernel_size=(3, 3), stride=(1, 1), padding=(1, 1))
          (conv2): DeformConv(
            in_channels=1024, out_channels=1024, kernel_size=(3, 3), stride=(1, 1), padding=(1, 1), dilation=(1, 1), groups=32, deformable_groups=1, bias=False
            (norm): FrozenBatchNorm2d(num_features=1024, eps=1e-05)
          )
          (conv3): Conv2d(
            1024, 1024, kernel_size=(1, 1), stride=(1, 1), bias=False
            (norm): FrozenBatchNorm2d(num_features=1024, eps=1e-05)
          )
        )
        (9): DeformBottleneckBlock(
          (conv1): Conv2d(
            1024, 1024, kernel_size=(1, 1), stride=(1, 1), bias=False
            (norm): FrozenBatchNorm2d(num_features=1024, eps=1e-05)
          )
          (conv2_offset): Conv2d(1024, 18, kernel_size=(3, 3), stride=(1, 1), padding=(1, 1))
          (conv2): DeformConv(
            in_channels=1024, out_channels=1024, kernel_size=(3, 3), stride=(1, 1), padding=(1, 1), dilation=(1, 1), groups=32, deformable_groups=1, bias=False
            (norm): FrozenBatchNorm2d(num_features=1024, eps=1e-05)
          )
          (conv3): Conv2d(
            1024, 1024, kernel_size=(1, 1), stride=(1, 1), bias=False
            (norm): FrozenBatchNorm2d(num_features=1024, eps=1e-05)
          )
        )
        (10): DeformBottleneckBlock(
          (conv1): Conv2d(
            1024, 1024, kernel_size=(1, 1), stride=(1, 1), bias=False
            (norm): FrozenBatchNorm2d(num_features=1024, eps=1e-05)
          )
          (conv2_offset): Conv2d(1024, 18, kernel_size=(3, 3), stride=(1, 1), padding=(1, 1))
          (conv2): DeformConv(
            in_channels=1024, out_channels=1024, kernel_size=(3, 3), stride=(1, 1), padding=(1, 1), dilation=(1, 1), groups=32, deformable_groups=1, bias=False
            (norm): FrozenBatchNorm2d(num_features=1024, eps=1e-05)
          )
          (conv3): Conv2d(
            1024, 1024, kernel_size=(1, 1), stride=(1, 1), bias=False
            (norm): FrozenBatchNorm2d(num_features=1024, eps=1e-05)
          )
        )
        (11): DeformBottleneckBlock(
          (conv1): Conv2d(
            1024, 1024, kernel_size=(1, 1), stride=(1, 1), bias=False
            (norm): FrozenBatchNorm2d(num_features=1024, eps=1e-05)
          )
          (conv2_offset): Conv2d(1024, 18, kernel_size=(3, 3), stride=(1, 1), padding=(1, 1))
          (conv2): DeformConv(
            in_channels=1024, out_channels=1024, kernel_size=(3, 3), stride=(1, 1), padding=(1, 1), dilation=(1, 1), groups=32, deformable_groups=1, bias=False
            (norm): FrozenBatchNorm2d(num_features=1024, eps=1e-05)
          )
          (conv3): Conv2d(
            1024, 1024, kernel_size=(1, 1), stride=(1, 1), bias=False
            (norm): FrozenBatchNorm2d(num_features=1024, eps=1e-05)
          )
        )
        (12): DeformBottleneckBlock(
          (conv1): Conv2d(
            1024, 1024, kernel_size=(1, 1), stride=(1, 1), bias=False
            (norm): FrozenBatchNorm2d(num_features=1024, eps=1e-05)
          )
          (conv2_offset): Conv2d(1024, 18, kernel_size=(3, 3), stride=(1, 1), padding=(1, 1))
          (conv2): DeformConv(
            in_channels=1024, out_channels=1024, kernel_size=(3, 3), stride=(1, 1), padding=(1, 1), dilation=(1, 1), groups=32, deformable_groups=1, bias=False
            (norm): FrozenBatchNorm2d(num_features=1024, eps=1e-05)
          )
          (conv3): Conv2d(
            1024, 1024, kernel_size=(1, 1), stride=(1, 1), bias=False
            (norm): FrozenBatchNorm2d(num_features=1024, eps=1e-05)
          )
        )
        (13): DeformBottleneckBlock(
          (conv1): Conv2d(
            1024, 1024, kernel_size=(1, 1), stride=(1, 1), bias=False
            (norm): FrozenBatchNorm2d(num_features=1024, eps=1e-05)
          )
          (conv2_offset): Conv2d(1024, 18, kernel_size=(3, 3), stride=(1, 1), padding=(1, 1))
          (conv2): DeformConv(
            in_channels=1024, out_channels=1024, kernel_size=(3, 3), stride=(1, 1), padding=(1, 1), dilation=(1, 1), groups=32, deformable_groups=1, bias=False
            (norm): FrozenBatchNorm2d(num_features=1024, eps=1e-05)
          )
          (conv3): Conv2d(
            1024, 1024, kernel_size=(1, 1), stride=(1, 1), bias=False
            (norm): FrozenBatchNorm2d(num_features=1024, eps=1e-05)
          )
        )
        (14): DeformBottleneckBlock(
          (conv1): Conv2d(
            1024, 1024, kernel_size=(1, 1), stride=(1, 1), bias=False
            (norm): FrozenBatchNorm2d(num_features=1024, eps=1e-05)
          )
          (conv2_offset): Conv2d(1024, 18, kernel_size=(3, 3), stride=(1, 1), padding=(1, 1))
          (conv2): DeformConv(
            in_channels=1024, out_channels=1024, kernel_size=(3, 3), stride=(1, 1), padding=(1, 1), dilation=(1, 1), groups=32, deformable_groups=1, bias=False
            (norm): FrozenBatchNorm2d(num_features=1024, eps=1e-05)
          )
          (conv3): Conv2d(
            1024, 1024, kernel_size=(1, 1), stride=(1, 1), bias=False
            (norm): FrozenBatchNorm2d(num_features=1024, eps=1e-05)
          )
        )
        (15): DeformBottleneckBlock(
          (conv1): Conv2d(
            1024, 1024, kernel_size=(1, 1), stride=(1, 1), bias=False
            (norm): FrozenBatchNorm2d(num_features=1024, eps=1e-05)
          )
          (conv2_offset): Conv2d(1024, 18, kernel_size=(3, 3), stride=(1, 1), padding=(1, 1))
          (conv2): DeformConv(
            in_channels=1024, out_channels=1024, kernel_size=(3, 3), stride=(1, 1), padding=(1, 1), dilation=(1, 1), groups=32, deformable_groups=1, bias=False
            (norm): FrozenBatchNorm2d(num_features=1024, eps=1e-05)
          )
          (conv3): Conv2d(
            1024, 1024, kernel_size=(1, 1), stride=(1, 1), bias=False
            (norm): FrozenBatchNorm2d(num_features=1024, eps=1e-05)
          )
        )
        (16): DeformBottleneckBlock(
          (conv1): Conv2d(
            1024, 1024, kernel_size=(1, 1), stride=(1, 1), bias=False
            (norm): FrozenBatchNorm2d(num_features=1024, eps=1e-05)
          )
          (conv2_offset): Conv2d(1024, 18, kernel_size=(3, 3), stride=(1, 1), padding=(1, 1))
          (conv2): DeformConv(
            in_channels=1024, out_channels=1024, kernel_size=(3, 3), stride=(1, 1), padding=(1, 1), dilation=(1, 1), groups=32, deformable_groups=1, bias=False
            (norm): FrozenBatchNorm2d(num_features=1024, eps=1e-05)
          )
          (conv3): Conv2d(
            1024, 1024, kernel_size=(1, 1), stride=(1, 1), bias=False
            (norm): FrozenBatchNorm2d(num_features=1024, eps=1e-05)
          )
        )
        (17): DeformBottleneckBlock(
          (conv1): Conv2d(
            1024, 1024, kernel_size=(1, 1), stride=(1, 1), bias=False
            (norm): FrozenBatchNorm2d(num_features=1024, eps=1e-05)
          )
          (conv2_offset): Conv2d(1024, 18, kernel_size=(3, 3), stride=(1, 1), padding=(1, 1))
          (conv2): DeformConv(
            in_channels=1024, out_channels=1024, kernel_size=(3, 3), stride=(1, 1), padding=(1, 1), dilation=(1, 1), groups=32, deformable_groups=1, bias=False
            (norm): FrozenBatchNorm2d(num_features=1024, eps=1e-05)
          )
          (conv3): Conv2d(
            1024, 1024, kernel_size=(1, 1), stride=(1, 1), bias=False
            (norm): FrozenBatchNorm2d(num_features=1024, eps=1e-05)
          )
        )
        (18): DeformBottleneckBlock(
          (conv1): Conv2d(
            1024, 1024, kernel_size=(1, 1), stride=(1, 1), bias=False
            (norm): FrozenBatchNorm2d(num_features=1024, eps=1e-05)
          )
          (conv2_offset): Conv2d(1024, 18, kernel_size=(3, 3), stride=(1, 1), padding=(1, 1))
          (conv2): DeformConv(
            in_channels=1024, out_channels=1024, kernel_size=(3, 3), stride=(1, 1), padding=(1, 1), dilation=(1, 1), groups=32, deformable_groups=1, bias=False
            (norm): FrozenBatchNorm2d(num_features=1024, eps=1e-05)
          )
          (conv3): Conv2d(
            1024, 1024, kernel_size=(1, 1), stride=(1, 1), bias=False
            (norm): FrozenBatchNorm2d(num_features=1024, eps=1e-05)
          )
        )
        (19): DeformBottleneckBlock(
          (conv1): Conv2d(
            1024, 1024, kernel_size=(1, 1), stride=(1, 1), bias=False
            (norm): FrozenBatchNorm2d(num_features=1024, eps=1e-05)
          )
          (conv2_offset): Conv2d(1024, 18, kernel_size=(3, 3), stride=(1, 1), padding=(1, 1))
          (conv2): DeformConv(
            in_channels=1024, out_channels=1024, kernel_size=(3, 3), stride=(1, 1), padding=(1, 1), dilation=(1, 1), groups=32, deformable_groups=1, bias=False
            (norm): FrozenBatchNorm2d(num_features=1024, eps=1e-05)
          )
          (conv3): Conv2d(
            1024, 1024, kernel_size=(1, 1), stride=(1, 1), bias=False
            (norm): FrozenBatchNorm2d(num_features=1024, eps=1e-05)
          )
        )
        (20): DeformBottleneckBlock(
          (conv1): Conv2d(
            1024, 1024, kernel_size=(1, 1), stride=(1, 1), bias=False
            (norm): FrozenBatchNorm2d(num_features=1024, eps=1e-05)
          )
          (conv2_offset): Conv2d(1024, 18, kernel_size=(3, 3), stride=(1, 1), padding=(1, 1))
          (conv2): DeformConv(
            in_channels=1024, out_channels=1024, kernel_size=(3, 3), stride=(1, 1), padding=(1, 1), dilation=(1, 1), groups=32, deformable_groups=1, bias=False
            (norm): FrozenBatchNorm2d(num_features=1024, eps=1e-05)
          )
          (conv3): Conv2d(
            1024, 1024, kernel_size=(1, 1), stride=(1, 1), bias=False
            (norm): FrozenBatchNorm2d(num_features=1024, eps=1e-05)
          )
        )
        (21): DeformBottleneckBlock(
          (conv1): Conv2d(
            1024, 1024, kernel_size=(1, 1), stride=(1, 1), bias=False
            (norm): FrozenBatchNorm2d(num_features=1024, eps=1e-05)
          )
          (conv2_offset): Conv2d(1024, 18, kernel_size=(3, 3), stride=(1, 1), padding=(1, 1))
          (conv2): DeformConv(
            in_channels=1024, out_channels=1024, kernel_size=(3, 3), stride=(1, 1), padding=(1, 1), dilation=(1, 1), groups=32, deformable_groups=1, bias=False
            (norm): FrozenBatchNorm2d(num_features=1024, eps=1e-05)
          )
          (conv3): Conv2d(
            1024, 1024, kernel_size=(1, 1), stride=(1, 1), bias=False
            (norm): FrozenBatchNorm2d(num_features=1024, eps=1e-05)
          )
        )
        (22): DeformBottleneckBlock(
          (conv1): Conv2d(
            1024, 1024, kernel_size=(1, 1), stride=(1, 1), bias=False
            (norm): FrozenBatchNorm2d(num_features=1024, eps=1e-05)
          )
          (conv2_offset): Conv2d(1024, 18, kernel_size=(3, 3), stride=(1, 1), padding=(1, 1))
          (conv2): DeformConv(
            in_channels=1024, out_channels=1024, kernel_size=(3, 3), stride=(1, 1), padding=(1, 1), dilation=(1, 1), groups=32, deformable_groups=1, bias=False
            (norm): FrozenBatchNorm2d(num_features=1024, eps=1e-05)
          )
          (conv3): Conv2d(
            1024, 1024, kernel_size=(1, 1), stride=(1, 1), bias=False
            (norm): FrozenBatchNorm2d(num_features=1024, eps=1e-05)
          )
        )
        (23): DeformBottleneckBlock(
          (conv1): Conv2d(
            1024, 1024, kernel_size=(1, 1), stride=(1, 1), bias=False
            (norm): FrozenBatchNorm2d(num_features=1024, eps=1e-05)
          )
          (conv2_offset): Conv2d(1024, 18, kernel_size=(3, 3), stride=(1, 1), padding=(1, 1))
          (conv2): DeformConv(
            in_channels=1024, out_channels=1024, kernel_size=(3, 3), stride=(1, 1), padding=(1, 1), dilation=(1, 1), groups=32, deformable_groups=1, bias=False
            (norm): FrozenBatchNorm2d(num_features=1024, eps=1e-05)
          )
          (conv3): Conv2d(
            1024, 1024, kernel_size=(1, 1), stride=(1, 1), bias=False
            (norm): FrozenBatchNorm2d(num_features=1024, eps=1e-05)
          )
        )
        (24): DeformBottleneckBlock(
          (conv1): Conv2d(
            1024, 1024, kernel_size=(1, 1), stride=(1, 1), bias=False
            (norm): FrozenBatchNorm2d(num_features=1024, eps=1e-05)
          )
          (conv2_offset): Conv2d(1024, 18, kernel_size=(3, 3), stride=(1, 1), padding=(1, 1))
          (conv2): DeformConv(
            in_channels=1024, out_channels=1024, kernel_size=(3, 3), stride=(1, 1), padding=(1, 1), dilation=(1, 1), groups=32, deformable_groups=1, bias=False
            (norm): FrozenBatchNorm2d(num_features=1024, eps=1e-05)
          )
          (conv3): Conv2d(
            1024, 1024, kernel_size=(1, 1), stride=(1, 1), bias=False
            (norm): FrozenBatchNorm2d(num_features=1024, eps=1e-05)
          )
        )
        (25): DeformBottleneckBlock(
          (conv1): Conv2d(
            1024, 1024, kernel_size=(1, 1), stride=(1, 1), bias=False
            (norm): FrozenBatchNorm2d(num_features=1024, eps=1e-05)
          )
          (conv2_offset): Conv2d(1024, 18, kernel_size=(3, 3), stride=(1, 1), padding=(1, 1))
          (conv2): DeformConv(
            in_channels=1024, out_channels=1024, kernel_size=(3, 3), stride=(1, 1), padding=(1, 1), dilation=(1, 1), groups=32, deformable_groups=1, bias=False
            (norm): FrozenBatchNorm2d(num_features=1024, eps=1e-05)
          )
          (conv3): Conv2d(
            1024, 1024, kernel_size=(1, 1), stride=(1, 1), bias=False
            (norm): FrozenBatchNorm2d(num_features=1024, eps=1e-05)
          )
        )
        (26): DeformBottleneckBlock(
          (conv1): Conv2d(
            1024, 1024, kernel_size=(1, 1), stride=(1, 1), bias=False
            (norm): FrozenBatchNorm2d(num_features=1024, eps=1e-05)
          )
          (conv2_offset): Conv2d(1024, 18, kernel_size=(3, 3), stride=(1, 1), padding=(1, 1))
          (conv2): DeformConv(
            in_channels=1024, out_channels=1024, kernel_size=(3, 3), stride=(1, 1), padding=(1, 1), dilation=(1, 1), groups=32, deformable_groups=1, bias=False
            (norm): FrozenBatchNorm2d(num_features=1024, eps=1e-05)
          )
          (conv3): Conv2d(
            1024, 1024, kernel_size=(1, 1), stride=(1, 1), bias=False
            (norm): FrozenBatchNorm2d(num_features=1024, eps=1e-05)
          )
        )
        (27): DeformBottleneckBlock(
          (conv1): Conv2d(
            1024, 1024, kernel_size=(1, 1), stride=(1, 1), bias=False
            (norm): FrozenBatchNorm2d(num_features=1024, eps=1e-05)
          )
          (conv2_offset): Conv2d(1024, 18, kernel_size=(3, 3), stride=(1, 1), padding=(1, 1))
          (conv2): DeformConv(
            in_channels=1024, out_channels=1024, kernel_size=(3, 3), stride=(1, 1), padding=(1, 1), dilation=(1, 1), groups=32, deformable_groups=1, bias=False
            (norm): FrozenBatchNorm2d(num_features=1024, eps=1e-05)
          )
          (conv3): Conv2d(
            1024, 1024, kernel_size=(1, 1), stride=(1, 1), bias=False
            (norm): FrozenBatchNorm2d(num_features=1024, eps=1e-05)
          )
        )
        (28): DeformBottleneckBlock(
          (conv1): Conv2d(
            1024, 1024, kernel_size=(1, 1), stride=(1, 1), bias=False
            (norm): FrozenBatchNorm2d(num_features=1024, eps=1e-05)
          )
          (conv2_offset): Conv2d(1024, 18, kernel_size=(3, 3), stride=(1, 1), padding=(1, 1))
          (conv2): DeformConv(
            in_channels=1024, out_channels=1024, kernel_size=(3, 3), stride=(1, 1), padding=(1, 1), dilation=(1, 1), groups=32, deformable_groups=1, bias=False
            (norm): FrozenBatchNorm2d(num_features=1024, eps=1e-05)
          )
          (conv3): Conv2d(
            1024, 1024, kernel_size=(1, 1), stride=(1, 1), bias=False
            (norm): FrozenBatchNorm2d(num_features=1024, eps=1e-05)
          )
        )
        (29): DeformBottleneckBlock(
          (conv1): Conv2d(
            1024, 1024, kernel_size=(1, 1), stride=(1, 1), bias=False
            (norm): FrozenBatchNorm2d(num_features=1024, eps=1e-05)
          )
          (conv2_offset): Conv2d(1024, 18, kernel_size=(3, 3), stride=(1, 1), padding=(1, 1))
          (conv2): DeformConv(
            in_channels=1024, out_channels=1024, kernel_size=(3, 3), stride=(1, 1), padding=(1, 1), dilation=(1, 1), groups=32, deformable_groups=1, bias=False
            (norm): FrozenBatchNorm2d(num_features=1024, eps=1e-05)
          )
          (conv3): Conv2d(
            1024, 1024, kernel_size=(1, 1), stride=(1, 1), bias=False
            (norm): FrozenBatchNorm2d(num_features=1024, eps=1e-05)
          )
        )
        (30): DeformBottleneckBlock(
          (conv1): Conv2d(
            1024, 1024, kernel_size=(1, 1), stride=(1, 1), bias=False
            (norm): FrozenBatchNorm2d(num_features=1024, eps=1e-05)
          )
          (conv2_offset): Conv2d(1024, 18, kernel_size=(3, 3), stride=(1, 1), padding=(1, 1))
          (conv2): DeformConv(
            in_channels=1024, out_channels=1024, kernel_size=(3, 3), stride=(1, 1), padding=(1, 1), dilation=(1, 1), groups=32, deformable_groups=1, bias=False
            (norm): FrozenBatchNorm2d(num_features=1024, eps=1e-05)
          )
          (conv3): Conv2d(
            1024, 1024, kernel_size=(1, 1), stride=(1, 1), bias=False
            (norm): FrozenBatchNorm2d(num_features=1024, eps=1e-05)
          )
        )
        (31): DeformBottleneckBlock(
          (conv1): Conv2d(
            1024, 1024, kernel_size=(1, 1), stride=(1, 1), bias=False
            (norm): FrozenBatchNorm2d(num_features=1024, eps=1e-05)
          )
          (conv2_offset): Conv2d(1024, 18, kernel_size=(3, 3), stride=(1, 1), padding=(1, 1))
          (conv2): DeformConv(
            in_channels=1024, out_channels=1024, kernel_size=(3, 3), stride=(1, 1), padding=(1, 1), dilation=(1, 1), groups=32, deformable_groups=1, bias=False
            (norm): FrozenBatchNorm2d(num_features=1024, eps=1e-05)
          )
          (conv3): Conv2d(
            1024, 1024, kernel_size=(1, 1), stride=(1, 1), bias=False
            (norm): FrozenBatchNorm2d(num_features=1024, eps=1e-05)
          )
        )
        (32): DeformBottleneckBlock(
          (conv1): Conv2d(
            1024, 1024, kernel_size=(1, 1), stride=(1, 1), bias=False
            (norm): FrozenBatchNorm2d(num_features=1024, eps=1e-05)
          )
          (conv2_offset): Conv2d(1024, 18, kernel_size=(3, 3), stride=(1, 1), padding=(1, 1))
          (conv2): DeformConv(
            in_channels=1024, out_channels=1024, kernel_size=(3, 3), stride=(1, 1), padding=(1, 1), dilation=(1, 1), groups=32, deformable_groups=1, bias=False
            (norm): FrozenBatchNorm2d(num_features=1024, eps=1e-05)
          )
          (conv3): Conv2d(
            1024, 1024, kernel_size=(1, 1), stride=(1, 1), bias=False
            (norm): FrozenBatchNorm2d(num_features=1024, eps=1e-05)
          )
        )
        (33): DeformBottleneckBlock(
          (conv1): Conv2d(
            1024, 1024, kernel_size=(1, 1), stride=(1, 1), bias=False
            (norm): FrozenBatchNorm2d(num_features=1024, eps=1e-05)
          )
          (conv2_offset): Conv2d(1024, 18, kernel_size=(3, 3), stride=(1, 1), padding=(1, 1))
          (conv2): DeformConv(
            in_channels=1024, out_channels=1024, kernel_size=(3, 3), stride=(1, 1), padding=(1, 1), dilation=(1, 1), groups=32, deformable_groups=1, bias=False
            (norm): FrozenBatchNorm2d(num_features=1024, eps=1e-05)
          )
          (conv3): Conv2d(
            1024, 1024, kernel_size=(1, 1), stride=(1, 1), bias=False
            (norm): FrozenBatchNorm2d(num_features=1024, eps=1e-05)
          )
        )
        (34): DeformBottleneckBlock(
          (conv1): Conv2d(
            1024, 1024, kernel_size=(1, 1), stride=(1, 1), bias=False
            (norm): FrozenBatchNorm2d(num_features=1024, eps=1e-05)
          )
          (conv2_offset): Conv2d(1024, 18, kernel_size=(3, 3), stride=(1, 1), padding=(1, 1))
          (conv2): DeformConv(
            in_channels=1024, out_channels=1024, kernel_size=(3, 3), stride=(1, 1), padding=(1, 1), dilation=(1, 1), groups=32, deformable_groups=1, bias=False
            (norm): FrozenBatchNorm2d(num_features=1024, eps=1e-05)
          )
          (conv3): Conv2d(
            1024, 1024, kernel_size=(1, 1), stride=(1, 1), bias=False
            (norm): FrozenBatchNorm2d(num_features=1024, eps=1e-05)
          )
        )
        (35): DeformBottleneckBlock(
          (conv1): Conv2d(
            1024, 1024, kernel_size=(1, 1), stride=(1, 1), bias=False
            (norm): FrozenBatchNorm2d(num_features=1024, eps=1e-05)
          )
          (conv2_offset): Conv2d(1024, 18, kernel_size=(3, 3), stride=(1, 1), padding=(1, 1))
          (conv2): DeformConv(
            in_channels=1024, out_channels=1024, kernel_size=(3, 3), stride=(1, 1), padding=(1, 1), dilation=(1, 1), groups=32, deformable_groups=1, bias=False
            (norm): FrozenBatchNorm2d(num_features=1024, eps=1e-05)
          )
          (conv3): Conv2d(
            1024, 1024, kernel_size=(1, 1), stride=(1, 1), bias=False
            (norm): FrozenBatchNorm2d(num_features=1024, eps=1e-05)
          )
        )
      )
      (res5): Sequential(
        (0): DeformBottleneckBlock(
          (shortcut): Conv2d(
            1024, 2048, kernel_size=(1, 1), stride=(2, 2), bias=False
            (norm): FrozenBatchNorm2d(num_features=2048, eps=1e-05)
          )
          (conv1): Conv2d(
            1024, 2048, kernel_size=(1, 1), stride=(1, 1), bias=False
            (norm): FrozenBatchNorm2d(num_features=2048, eps=1e-05)
          )
          (conv2_offset): Conv2d(2048, 18, kernel_size=(3, 3), stride=(2, 2), padding=(1, 1))
          (conv2): DeformConv(
            in_channels=2048, out_channels=2048, kernel_size=(3, 3), stride=(2, 2), padding=(1, 1), dilation=(1, 1), groups=32, deformable_groups=1, bias=False
            (norm): FrozenBatchNorm2d(num_features=2048, eps=1e-05)
          )
          (conv3): Conv2d(
            2048, 2048, kernel_size=(1, 1), stride=(1, 1), bias=False
            (norm): FrozenBatchNorm2d(num_features=2048, eps=1e-05)
          )
        )
        (1): DeformBottleneckBlock(
          (conv1): Conv2d(
            2048, 2048, kernel_size=(1, 1), stride=(1, 1), bias=False
            (norm): FrozenBatchNorm2d(num_features=2048, eps=1e-05)
          )
          (conv2_offset): Conv2d(2048, 18, kernel_size=(3, 3), stride=(1, 1), padding=(1, 1))
          (conv2): DeformConv(
            in_channels=2048, out_channels=2048, kernel_size=(3, 3), stride=(1, 1), padding=(1, 1), dilation=(1, 1), groups=32, deformable_groups=1, bias=False
            (norm): FrozenBatchNorm2d(num_features=2048, eps=1e-05)
          )
          (conv3): Conv2d(
            2048, 2048, kernel_size=(1, 1), stride=(1, 1), bias=False
            (norm): FrozenBatchNorm2d(num_features=2048, eps=1e-05)
          )
        )
        (2): DeformBottleneckBlock(
          (conv1): Conv2d(
            2048, 2048, kernel_size=(1, 1), stride=(1, 1), bias=False
            (norm): FrozenBatchNorm2d(num_features=2048, eps=1e-05)
          )
          (conv2_offset): Conv2d(2048, 18, kernel_size=(3, 3), stride=(1, 1), padding=(1, 1))
          (conv2): DeformConv(
            in_channels=2048, out_channels=2048, kernel_size=(3, 3), stride=(1, 1), padding=(1, 1), dilation=(1, 1), groups=32, deformable_groups=1, bias=False
            (norm): FrozenBatchNorm2d(num_features=2048, eps=1e-05)
          )
          (conv3): Conv2d(
            2048, 2048, kernel_size=(1, 1), stride=(1, 1), bias=False
            (norm): FrozenBatchNorm2d(num_features=2048, eps=1e-05)
          )
        )
      )
    )
  )
  (proposal_generator): RPN(
    (rpn_head): StandardRPNHead(
      (conv): Conv2d(
        256, 256, kernel_size=(3, 3), stride=(1, 1), padding=(1, 1)
        (activation): ReLU()
      )
      (objectness_logits): Conv2d(256, 3, kernel_size=(1, 1), stride=(1, 1))
      (anchor_deltas): Conv2d(256, 12, kernel_size=(1, 1), stride=(1, 1))
    )
    (anchor_generator): DefaultAnchorGenerator(
      (cell_anchors): BufferList()
    )
  )
  (roi_heads): CascadeROIHeads(
    (box_pooler): ROIPooler(
      (level_poolers): ModuleList(
        (0): ROIAlign(output_size=(7, 7), spatial_scale=0.25, sampling_ratio=0, aligned=True)
        (1): ROIAlign(output_size=(7, 7), spatial_scale=0.125, sampling_ratio=0, aligned=True)
        (2): ROIAlign(output_size=(7, 7), spatial_scale=0.0625, sampling_ratio=0, aligned=True)
        (3): ROIAlign(output_size=(7, 7), spatial_scale=0.03125, sampling_ratio=0, aligned=True)
      )
    )
    (box_head): ModuleList(
      (0): FastRCNNConvFCHead(
        (conv1): Conv2d(
          256, 256, kernel_size=(3, 3), stride=(1, 1), padding=(1, 1), bias=False
          (norm): GroupNorm(32, 256, eps=1e-05, affine=True)
          (activation): ReLU()
        )
        (conv2): Conv2d(
          256, 256, kernel_size=(3, 3), stride=(1, 1), padding=(1, 1), bias=False
          (norm): GroupNorm(32, 256, eps=1e-05, affine=True)
          (activation): ReLU()
        )
        (conv3): Conv2d(
          256, 256, kernel_size=(3, 3), stride=(1, 1), padding=(1, 1), bias=False
          (norm): GroupNorm(32, 256, eps=1e-05, affine=True)
          (activation): ReLU()
        )
        (conv4): Conv2d(
          256, 256, kernel_size=(3, 3), stride=(1, 1), padding=(1, 1), bias=False
          (norm): GroupNorm(32, 256, eps=1e-05, affine=True)
          (activation): ReLU()
        )
        (flatten): Flatten(start_dim=1, end_dim=-1)
        (fc1): Linear(in_features=12544, out_features=1024, bias=True)
        (fc_relu1): ReLU()
      )
      (1): FastRCNNConvFCHead(
        (conv1): Conv2d(
          256, 256, kernel_size=(3, 3), stride=(1, 1), padding=(1, 1), bias=False
          (norm): GroupNorm(32, 256, eps=1e-05, affine=True)
          (activation): ReLU()
        )
        (conv2): Conv2d(
          256, 256, kernel_size=(3, 3), stride=(1, 1), padding=(1, 1), bias=False
          (norm): GroupNorm(32, 256, eps=1e-05, affine=True)
          (activation): ReLU()
        )
        (conv3): Conv2d(
          256, 256, kernel_size=(3, 3), stride=(1, 1), padding=(1, 1), bias=False
          (norm): GroupNorm(32, 256, eps=1e-05, affine=True)
          (activation): ReLU()
        )
        (conv4): Conv2d(
          256, 256, kernel_size=(3, 3), stride=(1, 1), padding=(1, 1), bias=False
          (norm): GroupNorm(32, 256, eps=1e-05, affine=True)
          (activation): ReLU()
        )
        (flatten): Flatten(start_dim=1, end_dim=-1)
        (fc1): Linear(in_features=12544, out_features=1024, bias=True)
        (fc_relu1): ReLU()
      )
      (2): FastRCNNConvFCHead(
        (conv1): Conv2d(
          256, 256, kernel_size=(3, 3), stride=(1, 1), padding=(1, 1), bias=False
          (norm): GroupNorm(32, 256, eps=1e-05, affine=True)
          (activation): ReLU()
        )
        (conv2): Conv2d(
          256, 256, kernel_size=(3, 3), stride=(1, 1), padding=(1, 1), bias=False
          (norm): GroupNorm(32, 256, eps=1e-05, affine=True)
          (activation): ReLU()
        )
        (conv3): Conv2d(
          256, 256, kernel_size=(3, 3), stride=(1, 1), padding=(1, 1), bias=False
          (norm): GroupNorm(32, 256, eps=1e-05, affine=True)
          (activation): ReLU()
        )
        (conv4): Conv2d(
          256, 256, kernel_size=(3, 3), stride=(1, 1), padding=(1, 1), bias=False
          (norm): GroupNorm(32, 256, eps=1e-05, affine=True)
          (activation): ReLU()
        )
        (flatten): Flatten(start_dim=1, end_dim=-1)
        (fc1): Linear(in_features=12544, out_features=1024, bias=True)
        (fc_relu1): ReLU()
      )
    )
    (box_predictor): ModuleList(
      (0): FastRCNNOutputLayers(
        (cls_score): Linear(in_features=1024, out_features=4, bias=True)
        (bbox_pred): Linear(in_features=1024, out_features=4, bias=True)
      )
      (1): FastRCNNOutputLayers(
        (cls_score): Linear(in_features=1024, out_features=4, bias=True)
        (bbox_pred): Linear(in_features=1024, out_features=4, bias=True)
      )
      (2): FastRCNNOutputLayers(
        (cls_score): Linear(in_features=1024, out_features=4, bias=True)
        (bbox_pred): Linear(in_features=1024, out_features=4, bias=True)
      )
    )
    (mask_pooler): ROIPooler(
      (level_poolers): ModuleList(
        (0): ROIAlign(output_size=(14, 14), spatial_scale=0.25, sampling_ratio=0, aligned=True)
        (1): ROIAlign(output_size=(14, 14), spatial_scale=0.125, sampling_ratio=0, aligned=True)
        (2): ROIAlign(output_size=(14, 14), spatial_scale=0.0625, sampling_ratio=0, aligned=True)
        (3): ROIAlign(output_size=(14, 14), spatial_scale=0.03125, sampling_ratio=0, aligned=True)
      )
    )
    (mask_head): MaskRCNNConvUpsampleHead(
      (mask_fcn1): Conv2d(
        256, 256, kernel_size=(3, 3), stride=(1, 1), padding=(1, 1), bias=False
        (norm): GroupNorm(32, 256, eps=1e-05, affine=True)
        (activation): ReLU()
      )
      (mask_fcn2): Conv2d(
        256, 256, kernel_size=(3, 3), stride=(1, 1), padding=(1, 1), bias=False
        (norm): GroupNorm(32, 256, eps=1e-05, affine=True)
        (activation): ReLU()
      )
      (mask_fcn3): Conv2d(
        256, 256, kernel_size=(3, 3), stride=(1, 1), padding=(1, 1), bias=False
        (norm): GroupNorm(32, 256, eps=1e-05, affine=True)
        (activation): ReLU()
      )
      (mask_fcn4): Conv2d(
        256, 256, kernel_size=(3, 3), stride=(1, 1), padding=(1, 1), bias=False
        (norm): GroupNorm(32, 256, eps=1e-05, affine=True)
        (activation): ReLU()
      )
      (mask_fcn5): Conv2d(
        256, 256, kernel_size=(3, 3), stride=(1, 1), padding=(1, 1), bias=False
        (norm): GroupNorm(32, 256, eps=1e-05, affine=True)
        (activation): ReLU()
      )
      (mask_fcn6): Conv2d(
        256, 256, kernel_size=(3, 3), stride=(1, 1), padding=(1, 1), bias=False
        (norm): GroupNorm(32, 256, eps=1e-05, affine=True)
        (activation): ReLU()
      )
      (mask_fcn7): Conv2d(
        256, 256, kernel_size=(3, 3), stride=(1, 1), padding=(1, 1), bias=False
        (norm): GroupNorm(32, 256, eps=1e-05, affine=True)
        (activation): ReLU()
      )
      (mask_fcn8): Conv2d(
        256, 256, kernel_size=(3, 3), stride=(1, 1), padding=(1, 1), bias=False
        (norm): GroupNorm(32, 256, eps=1e-05, affine=True)
        (activation): ReLU()
      )
      (deconv): ConvTranspose2d(256, 256, kernel_size=(2, 2), stride=(2, 2))
      (deconv_relu): ReLU()
      (predictor): Conv2d(256, 3, kernel_size=(1, 1), stride=(1, 1))
    )
  )
)
[32m[12/16 10:58:44 d2.data.datasets.coco]: [0mLoaded 485 images in COCO format from ../cell_data/annotations_train.json
[32m[12/16 10:58:44 d2.data.datasets.coco]: [0mLoaded 485 images in COCO format from ../cell_data/annotations_train.json
[32m[12/16 10:58:45 d2.data.build]: [0mRemoved 0 images with no usable annotations. 485 images left.
…
